{
  "nodes": [
    {
      "op": "null", 
      "param": {}, 
      "name": "data", 
      "inputs": [], 
      "backward_source_id": -1, 
      "attr": {"force_mirroring": "True"}
    }, 
    {
      "op": "null", 
      "param": {}, 
      "name": "bn_data_gamma", 
      "inputs": [], 
      "backward_source_id": -1
    }, 
    {
      "op": "null", 
      "param": {}, 
      "name": "bn_data_beta", 
      "inputs": [], 
      "backward_source_id": -1
    }, 
    {
      "op": "BatchNorm", 
      "param": {
        "eps": "2e-05", 
        "fix_gamma": "True", 
        "momentum": "0.9", 
        "use_global_stats": "False"
      }, 
      "name": "bn_data", 
      "inputs": [[0, 0], [1, 0], [2, 0]], 
      "backward_source_id": -1, 
      "attr": {"force_mirroring": "True"}
    }, 
    {
      "op": "null", 
      "param": {}, 
      "name": "conv0_weight", 
      "inputs": [], 
      "backward_source_id": -1
    }, 
    {
      "op": "Convolution", 
      "param": {
        "cudnn_tune": "limited_workspace", 
        "dilate": "(1,1)", 
        "kernel": "(7,7)", 
        "no_bias": "True", 
        "num_filter": "64", 
        "num_group": "1", 
        "pad": "(3,3)", 
        "stride": "(2,2)", 
        "workspace": "512"
      }, 
      "name": "conv0", 
      "inputs": [[3, 0], [4, 0]], 
      "backward_source_id": -1, 
      "attr": {"force_mirroring": "True"}
    }, 
    {
      "op": "null", 
      "param": {}, 
      "name": "bn0_gamma", 
      "inputs": [], 
      "backward_source_id": -1
    }, 
    {
      "op": "null", 
      "param": {}, 
      "name": "bn0_beta", 
      "inputs": [], 
      "backward_source_id": -1
    }, 
    {
      "op": "BatchNorm", 
      "param": {
        "eps": "2e-05", 
        "fix_gamma": "False", 
        "momentum": "0.9", 
        "use_global_stats": "False"
      }, 
      "name": "bn0", 
      "inputs": [[5, 0], [6, 0], [7, 0]], 
      "backward_source_id": -1, 
      "attr": {"force_mirroring": "True"}
    }, 
    {
      "op": "Activation", 
      "param": {"act_type": "relu"}, 
      "name": "relu0", 
      "inputs": [[8, 0]], 
      "backward_source_id": -1, 
      "attr": {"force_mirroring": "True"}
    }, 
    {
      "op": "Pooling", 
      "param": {
        "global_pool": "False", 
        "kernel": "(3,3)", 
        "pad": "(1,1)", 
        "pool_type": "max", 
        "stride": "(2,2)"
      }, 
      "name": "pooling0", 
      "inputs": [[9, 0]], 
      "backward_source_id": -1, 
      "attr": {"force_mirroring": "True"}
    }, 
    {
      "op": "null", 
      "param": {}, 
      "name": "stage1_unit1_bn1_gamma", 
      "inputs": [], 
      "backward_source_id": -1
    }, 
    {
      "op": "null", 
      "param": {}, 
      "name": "stage1_unit1_bn1_beta", 
      "inputs": [], 
      "backward_source_id": -1
    }, 
    {
      "op": "BatchNorm", 
      "param": {
        "eps": "2e-05", 
        "fix_gamma": "False", 
        "momentum": "0.9", 
        "use_global_stats": "False"
      }, 
      "name": "stage1_unit1_bn1", 
      "inputs": [[10, 0], [11, 0], [12, 0]], 
      "backward_source_id": -1, 
      "attr": {"force_mirroring": "True"}
    }, 
    {
      "op": "Activation", 
      "param": {"act_type": "relu"}, 
      "name": "stage1_unit1_relu1", 
      "inputs": [[13, 0]], 
      "backward_source_id": -1, 
      "attr": {"force_mirroring": "True"}
    }, 
    {
      "op": "null", 
      "param": {}, 
      "name": "stage1_unit1_conv1_weight", 
      "inputs": [], 
      "backward_source_id": -1
    }, 
    {
      "op": "Convolution", 
      "param": {
        "cudnn_tune": "limited_workspace", 
        "dilate": "(1,1)", 
        "kernel": "(1,1)", 
        "no_bias": "True", 
        "num_filter": "64", 
        "num_group": "1", 
        "pad": "(0,0)", 
        "stride": "(1,1)", 
        "workspace": "512"
      }, 
      "name": "stage1_unit1_conv1", 
      "inputs": [[14, 0], [15, 0]], 
      "backward_source_id": -1, 
      "attr": {"force_mirroring": "True"}
    }, 
    {
      "op": "null", 
      "param": {}, 
      "name": "stage1_unit1_bn2_gamma", 
      "inputs": [], 
      "backward_source_id": -1
    }, 
    {
      "op": "null", 
      "param": {}, 
      "name": "stage1_unit1_bn2_beta", 
      "inputs": [], 
      "backward_source_id": -1
    }, 
    {
      "op": "BatchNorm", 
      "param": {
        "eps": "2e-05", 
        "fix_gamma": "False", 
        "momentum": "0.9", 
        "use_global_stats": "False"
      }, 
      "name": "stage1_unit1_bn2", 
      "inputs": [[16, 0], [17, 0], [18, 0]], 
      "backward_source_id": -1, 
      "attr": {"force_mirroring": "True"}
    }, 
    {
      "op": "Activation", 
      "param": {"act_type": "relu"}, 
      "name": "stage1_unit1_relu2", 
      "inputs": [[19, 0]], 
      "backward_source_id": -1, 
      "attr": {"force_mirroring": "True"}
    }, 
    {
      "op": "null", 
      "param": {}, 
      "name": "stage1_unit1_conv2_weight", 
      "inputs": [], 
      "backward_source_id": -1
    }, 
    {
      "op": "Convolution", 
      "param": {
        "cudnn_tune": "limited_workspace", 
        "dilate": "(1,1)", 
        "kernel": "(3,3)", 
        "no_bias": "True", 
        "num_filter": "64", 
        "num_group": "1", 
        "pad": "(1,1)", 
        "stride": "(1,1)", 
        "workspace": "512"
      }, 
      "name": "stage1_unit1_conv2", 
      "inputs": [[20, 0], [21, 0]], 
      "backward_source_id": -1, 
      "attr": {"force_mirroring": "True"}
    }, 
    {
      "op": "null", 
      "param": {}, 
      "name": "stage1_unit1_bn3_gamma", 
      "inputs": [], 
      "backward_source_id": -1
    }, 
    {
      "op": "null", 
      "param": {}, 
      "name": "stage1_unit1_bn3_beta", 
      "inputs": [], 
      "backward_source_id": -1
    }, 
    {
      "op": "BatchNorm", 
      "param": {
        "eps": "2e-05", 
        "fix_gamma": "False", 
        "momentum": "0.9", 
        "use_global_stats": "False"
      }, 
      "name": "stage1_unit1_bn3", 
      "inputs": [[22, 0], [23, 0], [24, 0]], 
      "backward_source_id": -1, 
      "attr": {"force_mirroring": "True"}
    }, 
    {
      "op": "Activation", 
      "param": {"act_type": "relu"}, 
      "name": "stage1_unit1_relu3", 
      "inputs": [[25, 0]], 
      "backward_source_id": -1, 
      "attr": {"force_mirroring": "True"}
    }, 
    {
      "op": "null", 
      "param": {}, 
      "name": "stage1_unit1_conv3_weight", 
      "inputs": [], 
      "backward_source_id": -1
    }, 
    {
      "op": "Convolution", 
      "param": {
        "cudnn_tune": "limited_workspace", 
        "dilate": "(1,1)", 
        "kernel": "(1,1)", 
        "no_bias": "True", 
        "num_filter": "256", 
        "num_group": "1", 
        "pad": "(0,0)", 
        "stride": "(1,1)", 
        "workspace": "512"
      }, 
      "name": "stage1_unit1_conv3", 
      "inputs": [[26, 0], [27, 0]], 
      "backward_source_id": -1, 
      "attr": {"force_mirroring": "True"}
    }, 
    {
      "op": "null", 
      "param": {}, 
      "name": "stage1_unit1_sc_weight", 
      "inputs": [], 
      "backward_source_id": -1
    }, 
    {
      "op": "Convolution", 
      "param": {
        "cudnn_tune": "limited_workspace", 
        "dilate": "(1,1)", 
        "kernel": "(1,1)", 
        "no_bias": "True", 
        "num_filter": "256", 
        "num_group": "1", 
        "pad": "(0,0)", 
        "stride": "(1,1)", 
        "workspace": "512"
      }, 
      "name": "stage1_unit1_sc", 
      "inputs": [[14, 0], [29, 0]], 
      "backward_source_id": -1, 
      "attr": {
        "force_mirroring": "True", 
        "mirror_stage": "True"
      }
    }, 
    {
      "op": "_Plus", 
      "param": {}, 
      "name": "_plus0", 
      "inputs": [[28, 0], [30, 0]], 
      "backward_source_id": -1, 
      "attr": {
        "force_mirroring": "True", 
        "mirror_stage": "True"
      }
    }, 
    {
      "op": "null", 
      "param": {}, 
      "name": "stage1_unit2_bn1_gamma", 
      "inputs": [], 
      "backward_source_id": -1
    }, 
    {
      "op": "null", 
      "param": {}, 
      "name": "stage1_unit2_bn1_beta", 
      "inputs": [], 
      "backward_source_id": -1
    }, 
    {
      "op": "BatchNorm", 
      "param": {
        "eps": "2e-05", 
        "fix_gamma": "False", 
        "momentum": "0.9", 
        "use_global_stats": "False"
      }, 
      "name": "stage1_unit2_bn1", 
      "inputs": [[31, 0], [32, 0], [33, 0]], 
      "backward_source_id": -1, 
      "attr": {"force_mirroring": "True"}
    }, 
    {
      "op": "Activation", 
      "param": {"act_type": "relu"}, 
      "name": "stage1_unit2_relu1", 
      "inputs": [[34, 0]], 
      "backward_source_id": -1, 
      "attr": {"force_mirroring": "True"}
    }, 
    {
      "op": "null", 
      "param": {}, 
      "name": "stage1_unit2_conv1_weight", 
      "inputs": [], 
      "backward_source_id": -1
    }, 
    {
      "op": "Convolution", 
      "param": {
        "cudnn_tune": "limited_workspace", 
        "dilate": "(1,1)", 
        "kernel": "(1,1)", 
        "no_bias": "True", 
        "num_filter": "64", 
        "num_group": "1", 
        "pad": "(0,0)", 
        "stride": "(1,1)", 
        "workspace": "512"
      }, 
      "name": "stage1_unit2_conv1", 
      "inputs": [[35, 0], [36, 0]], 
      "backward_source_id": -1, 
      "attr": {"force_mirroring": "True"}
    }, 
    {
      "op": "null", 
      "param": {}, 
      "name": "stage1_unit2_bn2_gamma", 
      "inputs": [], 
      "backward_source_id": -1
    }, 
    {
      "op": "null", 
      "param": {}, 
      "name": "stage1_unit2_bn2_beta", 
      "inputs": [], 
      "backward_source_id": -1
    }, 
    {
      "op": "BatchNorm", 
      "param": {
        "eps": "2e-05", 
        "fix_gamma": "False", 
        "momentum": "0.9", 
        "use_global_stats": "False"
      }, 
      "name": "stage1_unit2_bn2", 
      "inputs": [[37, 0], [38, 0], [39, 0]], 
      "backward_source_id": -1, 
      "attr": {"force_mirroring": "True"}
    }, 
    {
      "op": "Activation", 
      "param": {"act_type": "relu"}, 
      "name": "stage1_unit2_relu2", 
      "inputs": [[40, 0]], 
      "backward_source_id": -1, 
      "attr": {"force_mirroring": "True"}
    }, 
    {
      "op": "null", 
      "param": {}, 
      "name": "stage1_unit2_conv2_weight", 
      "inputs": [], 
      "backward_source_id": -1
    }, 
    {
      "op": "Convolution", 
      "param": {
        "cudnn_tune": "limited_workspace", 
        "dilate": "(1,1)", 
        "kernel": "(3,3)", 
        "no_bias": "True", 
        "num_filter": "64", 
        "num_group": "1", 
        "pad": "(1,1)", 
        "stride": "(1,1)", 
        "workspace": "512"
      }, 
      "name": "stage1_unit2_conv2", 
      "inputs": [[41, 0], [42, 0]], 
      "backward_source_id": -1, 
      "attr": {"force_mirroring": "True"}
    }, 
    {
      "op": "null", 
      "param": {}, 
      "name": "stage1_unit2_bn3_gamma", 
      "inputs": [], 
      "backward_source_id": -1
    }, 
    {
      "op": "null", 
      "param": {}, 
      "name": "stage1_unit2_bn3_beta", 
      "inputs": [], 
      "backward_source_id": -1
    }, 
    {
      "op": "BatchNorm", 
      "param": {
        "eps": "2e-05", 
        "fix_gamma": "False", 
        "momentum": "0.9", 
        "use_global_stats": "False"
      }, 
      "name": "stage1_unit2_bn3", 
      "inputs": [[43, 0], [44, 0], [45, 0]], 
      "backward_source_id": -1, 
      "attr": {"force_mirroring": "True"}
    }, 
    {
      "op": "Activation", 
      "param": {"act_type": "relu"}, 
      "name": "stage1_unit2_relu3", 
      "inputs": [[46, 0]], 
      "backward_source_id": -1, 
      "attr": {"force_mirroring": "True"}
    }, 
    {
      "op": "null", 
      "param": {}, 
      "name": "stage1_unit2_conv3_weight", 
      "inputs": [], 
      "backward_source_id": -1
    }, 
    {
      "op": "Convolution", 
      "param": {
        "cudnn_tune": "limited_workspace", 
        "dilate": "(1,1)", 
        "kernel": "(1,1)", 
        "no_bias": "True", 
        "num_filter": "256", 
        "num_group": "1", 
        "pad": "(0,0)", 
        "stride": "(1,1)", 
        "workspace": "512"
      }, 
      "name": "stage1_unit2_conv3", 
      "inputs": [[47, 0], [48, 0]], 
      "backward_source_id": -1, 
      "attr": {"force_mirroring": "True"}
    }, 
    {
      "op": "_Plus", 
      "param": {}, 
      "name": "_plus1", 
      "inputs": [[49, 0], [31, 0]], 
      "backward_source_id": -1, 
      "attr": {
        "force_mirroring": "False", 
        "mirror_stage": "True"
      }
    }, 
    {
      "op": "null", 
      "param": {}, 
      "name": "stage1_unit3_bn1_gamma", 
      "inputs": [], 
      "backward_source_id": -1
    }, 
    {
      "op": "null", 
      "param": {}, 
      "name": "stage1_unit3_bn1_beta", 
      "inputs": [], 
      "backward_source_id": -1
    }, 
    {
      "op": "BatchNorm", 
      "param": {
        "eps": "2e-05", 
        "fix_gamma": "False", 
        "momentum": "0.9", 
        "use_global_stats": "False"
      }, 
      "name": "stage1_unit3_bn1", 
      "inputs": [[50, 0], [51, 0], [52, 0]], 
      "backward_source_id": -1, 
      "attr": {"force_mirroring": "True"}
    }, 
    {
      "op": "Activation", 
      "param": {"act_type": "relu"}, 
      "name": "stage1_unit3_relu1", 
      "inputs": [[53, 0]], 
      "backward_source_id": -1, 
      "attr": {"force_mirroring": "True"}
    }, 
    {
      "op": "null", 
      "param": {}, 
      "name": "stage1_unit3_conv1_weight", 
      "inputs": [], 
      "backward_source_id": -1
    }, 
    {
      "op": "Convolution", 
      "param": {
        "cudnn_tune": "limited_workspace", 
        "dilate": "(1,1)", 
        "kernel": "(1,1)", 
        "no_bias": "True", 
        "num_filter": "64", 
        "num_group": "1", 
        "pad": "(0,0)", 
        "stride": "(1,1)", 
        "workspace": "512"
      }, 
      "name": "stage1_unit3_conv1", 
      "inputs": [[54, 0], [55, 0]], 
      "backward_source_id": -1, 
      "attr": {"force_mirroring": "True"}
    }, 
    {
      "op": "null", 
      "param": {}, 
      "name": "stage1_unit3_bn2_gamma", 
      "inputs": [], 
      "backward_source_id": -1
    }, 
    {
      "op": "null", 
      "param": {}, 
      "name": "stage1_unit3_bn2_beta", 
      "inputs": [], 
      "backward_source_id": -1
    }, 
    {
      "op": "BatchNorm", 
      "param": {
        "eps": "2e-05", 
        "fix_gamma": "False", 
        "momentum": "0.9", 
        "use_global_stats": "False"
      }, 
      "name": "stage1_unit3_bn2", 
      "inputs": [[56, 0], [57, 0], [58, 0]], 
      "backward_source_id": -1, 
      "attr": {"force_mirroring": "True"}
    }, 
    {
      "op": "Activation", 
      "param": {"act_type": "relu"}, 
      "name": "stage1_unit3_relu2", 
      "inputs": [[59, 0]], 
      "backward_source_id": -1, 
      "attr": {"force_mirroring": "True"}
    }, 
    {
      "op": "null", 
      "param": {}, 
      "name": "stage1_unit3_conv2_weight", 
      "inputs": [], 
      "backward_source_id": -1
    }, 
    {
      "op": "Convolution", 
      "param": {
        "cudnn_tune": "limited_workspace", 
        "dilate": "(1,1)", 
        "kernel": "(3,3)", 
        "no_bias": "True", 
        "num_filter": "64", 
        "num_group": "1", 
        "pad": "(1,1)", 
        "stride": "(1,1)", 
        "workspace": "512"
      }, 
      "name": "stage1_unit3_conv2", 
      "inputs": [[60, 0], [61, 0]], 
      "backward_source_id": -1, 
      "attr": {"force_mirroring": "True"}
    }, 
    {
      "op": "null", 
      "param": {}, 
      "name": "stage1_unit3_bn3_gamma", 
      "inputs": [], 
      "backward_source_id": -1
    }, 
    {
      "op": "null", 
      "param": {}, 
      "name": "stage1_unit3_bn3_beta", 
      "inputs": [], 
      "backward_source_id": -1
    }, 
    {
      "op": "BatchNorm", 
      "param": {
        "eps": "2e-05", 
        "fix_gamma": "False", 
        "momentum": "0.9", 
        "use_global_stats": "False"
      }, 
      "name": "stage1_unit3_bn3", 
      "inputs": [[62, 0], [63, 0], [64, 0]], 
      "backward_source_id": -1, 
      "attr": {"force_mirroring": "True"}
    }, 
    {
      "op": "Activation", 
      "param": {"act_type": "relu"}, 
      "name": "stage1_unit3_relu3", 
      "inputs": [[65, 0]], 
      "backward_source_id": -1, 
      "attr": {"force_mirroring": "True"}
    }, 
    {
      "op": "null", 
      "param": {}, 
      "name": "stage1_unit3_conv3_weight", 
      "inputs": [], 
      "backward_source_id": -1
    }, 
    {
      "op": "Convolution", 
      "param": {
        "cudnn_tune": "limited_workspace", 
        "dilate": "(1,1)", 
        "kernel": "(1,1)", 
        "no_bias": "True", 
        "num_filter": "256", 
        "num_group": "1", 
        "pad": "(0,0)", 
        "stride": "(1,1)", 
        "workspace": "512"
      }, 
      "name": "stage1_unit3_conv3", 
      "inputs": [[66, 0], [67, 0]], 
      "backward_source_id": -1, 
      "attr": {"force_mirroring": "True"}
    }, 
    {
      "op": "_Plus", 
      "param": {}, 
      "name": "_plus2", 
      "inputs": [[68, 0], [50, 0]], 
      "backward_source_id": -1, 
      "attr": {"force_mirroring": "True"}
    }, 
    {
      "op": "null", 
      "param": {}, 
      "name": "stage2_unit1_bn1_gamma", 
      "inputs": [], 
      "backward_source_id": -1
    }, 
    {
      "op": "null", 
      "param": {}, 
      "name": "stage2_unit1_bn1_beta", 
      "inputs": [], 
      "backward_source_id": -1
    }, 
    {
      "op": "BatchNorm", 
      "param": {
        "eps": "2e-05", 
        "fix_gamma": "False", 
        "momentum": "0.9", 
        "use_global_stats": "False"
      }, 
      "name": "stage2_unit1_bn1", 
      "inputs": [[69, 0], [70, 0], [71, 0]], 
      "backward_source_id": -1, 
      "attr": {"force_mirroring": "True"}
    }, 
    {
      "op": "Activation", 
      "param": {"act_type": "relu"}, 
      "name": "stage2_unit1_relu1", 
      "inputs": [[72, 0]], 
      "backward_source_id": -1, 
      "attr": {"force_mirroring": "True"}
    }, 
    {
      "op": "null", 
      "param": {}, 
      "name": "stage2_unit1_conv1_weight", 
      "inputs": [], 
      "backward_source_id": -1
    }, 
    {
      "op": "Convolution", 
      "param": {
        "cudnn_tune": "limited_workspace", 
        "dilate": "(1,1)", 
        "kernel": "(1,1)", 
        "no_bias": "True", 
        "num_filter": "128", 
        "num_group": "1", 
        "pad": "(0,0)", 
        "stride": "(1,1)", 
        "workspace": "512"
      }, 
      "name": "stage2_unit1_conv1", 
      "inputs": [[73, 0], [74, 0]], 
      "backward_source_id": -1, 
      "attr": {"force_mirroring": "True"}
    }, 
    {
      "op": "null", 
      "param": {}, 
      "name": "stage2_unit1_bn2_gamma", 
      "inputs": [], 
      "backward_source_id": -1
    }, 
    {
      "op": "null", 
      "param": {}, 
      "name": "stage2_unit1_bn2_beta", 
      "inputs": [], 
      "backward_source_id": -1
    }, 
    {
      "op": "BatchNorm", 
      "param": {
        "eps": "2e-05", 
        "fix_gamma": "False", 
        "momentum": "0.9", 
        "use_global_stats": "False"
      }, 
      "name": "stage2_unit1_bn2", 
      "inputs": [[75, 0], [76, 0], [77, 0]], 
      "backward_source_id": -1, 
      "attr": {"force_mirroring": "True"}
    }, 
    {
      "op": "Activation", 
      "param": {"act_type": "relu"}, 
      "name": "stage2_unit1_relu2", 
      "inputs": [[78, 0]], 
      "backward_source_id": -1, 
      "attr": {"force_mirroring": "True"}
    }, 
    {
      "op": "null", 
      "param": {}, 
      "name": "stage2_unit1_conv2_weight", 
      "inputs": [], 
      "backward_source_id": -1
    }, 
    {
      "op": "Convolution", 
      "param": {
        "cudnn_tune": "limited_workspace", 
        "dilate": "(1,1)", 
        "kernel": "(3,3)", 
        "no_bias": "True", 
        "num_filter": "128", 
        "num_group": "1", 
        "pad": "(1,1)", 
        "stride": "(2,2)", 
        "workspace": "512"
      }, 
      "name": "stage2_unit1_conv2", 
      "inputs": [[79, 0], [80, 0]], 
      "backward_source_id": -1, 
      "attr": {"force_mirroring": "True"}
    }, 
    {
      "op": "null", 
      "param": {}, 
      "name": "stage2_unit1_bn3_gamma", 
      "inputs": [], 
      "backward_source_id": -1
    }, 
    {
      "op": "null", 
      "param": {}, 
      "name": "stage2_unit1_bn3_beta", 
      "inputs": [], 
      "backward_source_id": -1
    }, 
    {
      "op": "BatchNorm", 
      "param": {
        "eps": "2e-05", 
        "fix_gamma": "False", 
        "momentum": "0.9", 
        "use_global_stats": "False"
      }, 
      "name": "stage2_unit1_bn3", 
      "inputs": [[81, 0], [82, 0], [83, 0]], 
      "backward_source_id": -1, 
      "attr": {"force_mirroring": "True"}
    }, 
    {
      "op": "Activation", 
      "param": {"act_type": "relu"}, 
      "name": "stage2_unit1_relu3", 
      "inputs": [[84, 0]], 
      "backward_source_id": -1, 
      "attr": {"force_mirroring": "True"}
    }, 
    {
      "op": "null", 
      "param": {}, 
      "name": "stage2_unit1_conv3_weight", 
      "inputs": [], 
      "backward_source_id": -1
    }, 
    {
      "op": "Convolution", 
      "param": {
        "cudnn_tune": "limited_workspace", 
        "dilate": "(1,1)", 
        "kernel": "(1,1)", 
        "no_bias": "True", 
        "num_filter": "512", 
        "num_group": "1", 
        "pad": "(0,0)", 
        "stride": "(1,1)", 
        "workspace": "512"
      }, 
      "name": "stage2_unit1_conv3", 
      "inputs": [[85, 0], [86, 0]], 
      "backward_source_id": -1, 
      "attr": {"force_mirroring": "True"}
    }, 
    {
      "op": "null", 
      "param": {}, 
      "name": "stage2_unit1_sc_weight", 
      "inputs": [], 
      "backward_source_id": -1
    }, 
    {
      "op": "Convolution", 
      "param": {
        "cudnn_tune": "limited_workspace", 
        "dilate": "(1,1)", 
        "kernel": "(1,1)", 
        "no_bias": "True", 
        "num_filter": "512", 
        "num_group": "1", 
        "pad": "(0,0)", 
        "stride": "(2,2)", 
        "workspace": "512"
      }, 
      "name": "stage2_unit1_sc", 
      "inputs": [[73, 0], [88, 0]], 
      "backward_source_id": -1, 
      "attr": {
        "force_mirroring": "True", 
        "mirror_stage": "True"
      }
    }, 
    {
      "op": "_Plus", 
      "param": {}, 
      "name": "_plus3", 
      "inputs": [[87, 0], [89, 0]], 
      "backward_source_id": -1, 
      "attr": {
        "force_mirroring": "True", 
        "mirror_stage": "True"
      }
    }, 
    {
      "op": "null", 
      "param": {}, 
      "name": "stage2_unit2_bn1_gamma", 
      "inputs": [], 
      "backward_source_id": -1
    }, 
    {
      "op": "null", 
      "param": {}, 
      "name": "stage2_unit2_bn1_beta", 
      "inputs": [], 
      "backward_source_id": -1
    }, 
    {
      "op": "BatchNorm", 
      "param": {
        "eps": "2e-05", 
        "fix_gamma": "False", 
        "momentum": "0.9", 
        "use_global_stats": "False"
      }, 
      "name": "stage2_unit2_bn1", 
      "inputs": [[90, 0], [91, 0], [92, 0]], 
      "backward_source_id": -1, 
      "attr": {"force_mirroring": "True"}
    }, 
    {
      "op": "Activation", 
      "param": {"act_type": "relu"}, 
      "name": "stage2_unit2_relu1", 
      "inputs": [[93, 0]], 
      "backward_source_id": -1, 
      "attr": {"force_mirroring": "True"}
    }, 
    {
      "op": "null", 
      "param": {}, 
      "name": "stage2_unit2_conv1_weight", 
      "inputs": [], 
      "backward_source_id": -1
    }, 
    {
      "op": "Convolution", 
      "param": {
        "cudnn_tune": "limited_workspace", 
        "dilate": "(1,1)", 
        "kernel": "(1,1)", 
        "no_bias": "True", 
        "num_filter": "128", 
        "num_group": "1", 
        "pad": "(0,0)", 
        "stride": "(1,1)", 
        "workspace": "512"
      }, 
      "name": "stage2_unit2_conv1", 
      "inputs": [[94, 0], [95, 0]], 
      "backward_source_id": -1, 
      "attr": {"force_mirroring": "True"}
    }, 
    {
      "op": "null", 
      "param": {}, 
      "name": "stage2_unit2_bn2_gamma", 
      "inputs": [], 
      "backward_source_id": -1
    }, 
    {
      "op": "null", 
      "param": {}, 
      "name": "stage2_unit2_bn2_beta", 
      "inputs": [], 
      "backward_source_id": -1
    }, 
    {
      "op": "BatchNorm", 
      "param": {
        "eps": "2e-05", 
        "fix_gamma": "False", 
        "momentum": "0.9", 
        "use_global_stats": "False"
      }, 
      "name": "stage2_unit2_bn2", 
      "inputs": [[96, 0], [97, 0], [98, 0]], 
      "backward_source_id": -1, 
      "attr": {"force_mirroring": "True"}
    }, 
    {
      "op": "Activation", 
      "param": {"act_type": "relu"}, 
      "name": "stage2_unit2_relu2", 
      "inputs": [[99, 0]], 
      "backward_source_id": -1, 
      "attr": {"force_mirroring": "True"}
    }, 
    {
      "op": "null", 
      "param": {}, 
      "name": "stage2_unit2_conv2_weight", 
      "inputs": [], 
      "backward_source_id": -1
    }, 
    {
      "op": "Convolution", 
      "param": {
        "cudnn_tune": "limited_workspace", 
        "dilate": "(1,1)", 
        "kernel": "(3,3)", 
        "no_bias": "True", 
        "num_filter": "128", 
        "num_group": "1", 
        "pad": "(1,1)", 
        "stride": "(1,1)", 
        "workspace": "512"
      }, 
      "name": "stage2_unit2_conv2", 
      "inputs": [[100, 0], [101, 0]], 
      "backward_source_id": -1, 
      "attr": {"force_mirroring": "True"}
    }, 
    {
      "op": "null", 
      "param": {}, 
      "name": "stage2_unit2_bn3_gamma", 
      "inputs": [], 
      "backward_source_id": -1
    }, 
    {
      "op": "null", 
      "param": {}, 
      "name": "stage2_unit2_bn3_beta", 
      "inputs": [], 
      "backward_source_id": -1
    }, 
    {
      "op": "BatchNorm", 
      "param": {
        "eps": "2e-05", 
        "fix_gamma": "False", 
        "momentum": "0.9", 
        "use_global_stats": "False"
      }, 
      "name": "stage2_unit2_bn3", 
      "inputs": [[102, 0], [103, 0], [104, 0]], 
      "backward_source_id": -1, 
      "attr": {"force_mirroring": "True"}
    }, 
    {
      "op": "Activation", 
      "param": {"act_type": "relu"}, 
      "name": "stage2_unit2_relu3", 
      "inputs": [[105, 0]], 
      "backward_source_id": -1, 
      "attr": {"force_mirroring": "True"}
    }, 
    {
      "op": "null", 
      "param": {}, 
      "name": "stage2_unit2_conv3_weight", 
      "inputs": [], 
      "backward_source_id": -1
    }, 
    {
      "op": "Convolution", 
      "param": {
        "cudnn_tune": "limited_workspace", 
        "dilate": "(1,1)", 
        "kernel": "(1,1)", 
        "no_bias": "True", 
        "num_filter": "512", 
        "num_group": "1", 
        "pad": "(0,0)", 
        "stride": "(1,1)", 
        "workspace": "512"
      }, 
      "name": "stage2_unit2_conv3", 
      "inputs": [[106, 0], [107, 0]], 
      "backward_source_id": -1, 
      "attr": {"force_mirroring": "True"}
    }, 
    {
      "op": "_Plus", 
      "param": {}, 
      "name": "_plus4", 
      "inputs": [[108, 0], [90, 0]], 
      "backward_source_id": -1, 
      "attr": {
        "force_mirroring": "False", 
        "mirror_stage": "True"
      }
    }, 
    {
      "op": "null", 
      "param": {}, 
      "name": "stage2_unit3_bn1_gamma", 
      "inputs": [], 
      "backward_source_id": -1
    }, 
    {
      "op": "null", 
      "param": {}, 
      "name": "stage2_unit3_bn1_beta", 
      "inputs": [], 
      "backward_source_id": -1
    }, 
    {
      "op": "BatchNorm", 
      "param": {
        "eps": "2e-05", 
        "fix_gamma": "False", 
        "momentum": "0.9", 
        "use_global_stats": "False"
      }, 
      "name": "stage2_unit3_bn1", 
      "inputs": [[109, 0], [110, 0], [111, 0]], 
      "backward_source_id": -1, 
      "attr": {"force_mirroring": "True"}
    }, 
    {
      "op": "Activation", 
      "param": {"act_type": "relu"}, 
      "name": "stage2_unit3_relu1", 
      "inputs": [[112, 0]], 
      "backward_source_id": -1, 
      "attr": {"force_mirroring": "True"}
    }, 
    {
      "op": "null", 
      "param": {}, 
      "name": "stage2_unit3_conv1_weight", 
      "inputs": [], 
      "backward_source_id": -1
    }, 
    {
      "op": "Convolution", 
      "param": {
        "cudnn_tune": "limited_workspace", 
        "dilate": "(1,1)", 
        "kernel": "(1,1)", 
        "no_bias": "True", 
        "num_filter": "128", 
        "num_group": "1", 
        "pad": "(0,0)", 
        "stride": "(1,1)", 
        "workspace": "512"
      }, 
      "name": "stage2_unit3_conv1", 
      "inputs": [[113, 0], [114, 0]], 
      "backward_source_id": -1, 
      "attr": {"force_mirroring": "True"}
    }, 
    {
      "op": "null", 
      "param": {}, 
      "name": "stage2_unit3_bn2_gamma", 
      "inputs": [], 
      "backward_source_id": -1
    }, 
    {
      "op": "null", 
      "param": {}, 
      "name": "stage2_unit3_bn2_beta", 
      "inputs": [], 
      "backward_source_id": -1
    }, 
    {
      "op": "BatchNorm", 
      "param": {
        "eps": "2e-05", 
        "fix_gamma": "False", 
        "momentum": "0.9", 
        "use_global_stats": "False"
      }, 
      "name": "stage2_unit3_bn2", 
      "inputs": [[115, 0], [116, 0], [117, 0]], 
      "backward_source_id": -1, 
      "attr": {"force_mirroring": "True"}
    }, 
    {
      "op": "Activation", 
      "param": {"act_type": "relu"}, 
      "name": "stage2_unit3_relu2", 
      "inputs": [[118, 0]], 
      "backward_source_id": -1, 
      "attr": {"force_mirroring": "True"}
    }, 
    {
      "op": "null", 
      "param": {}, 
      "name": "stage2_unit3_conv2_weight", 
      "inputs": [], 
      "backward_source_id": -1
    }, 
    {
      "op": "Convolution", 
      "param": {
        "cudnn_tune": "limited_workspace", 
        "dilate": "(1,1)", 
        "kernel": "(3,3)", 
        "no_bias": "True", 
        "num_filter": "128", 
        "num_group": "1", 
        "pad": "(1,1)", 
        "stride": "(1,1)", 
        "workspace": "512"
      }, 
      "name": "stage2_unit3_conv2", 
      "inputs": [[119, 0], [120, 0]], 
      "backward_source_id": -1, 
      "attr": {"force_mirroring": "True"}
    }, 
    {
      "op": "null", 
      "param": {}, 
      "name": "stage2_unit3_bn3_gamma", 
      "inputs": [], 
      "backward_source_id": -1
    }, 
    {
      "op": "null", 
      "param": {}, 
      "name": "stage2_unit3_bn3_beta", 
      "inputs": [], 
      "backward_source_id": -1
    }, 
    {
      "op": "BatchNorm", 
      "param": {
        "eps": "2e-05", 
        "fix_gamma": "False", 
        "momentum": "0.9", 
        "use_global_stats": "False"
      }, 
      "name": "stage2_unit3_bn3", 
      "inputs": [[121, 0], [122, 0], [123, 0]], 
      "backward_source_id": -1, 
      "attr": {"force_mirroring": "True"}
    }, 
    {
      "op": "Activation", 
      "param": {"act_type": "relu"}, 
      "name": "stage2_unit3_relu3", 
      "inputs": [[124, 0]], 
      "backward_source_id": -1, 
      "attr": {"force_mirroring": "True"}
    }, 
    {
      "op": "null", 
      "param": {}, 
      "name": "stage2_unit3_conv3_weight", 
      "inputs": [], 
      "backward_source_id": -1
    }, 
    {
      "op": "Convolution", 
      "param": {
        "cudnn_tune": "limited_workspace", 
        "dilate": "(1,1)", 
        "kernel": "(1,1)", 
        "no_bias": "True", 
        "num_filter": "512", 
        "num_group": "1", 
        "pad": "(0,0)", 
        "stride": "(1,1)", 
        "workspace": "512"
      }, 
      "name": "stage2_unit3_conv3", 
      "inputs": [[125, 0], [126, 0]], 
      "backward_source_id": -1, 
      "attr": {"force_mirroring": "True"}
    }, 
    {
      "op": "_Plus", 
      "param": {}, 
      "name": "_plus5", 
      "inputs": [[127, 0], [109, 0]], 
      "backward_source_id": -1, 
      "attr": {
        "force_mirroring": "True", 
        "mirror_stage": "True"
      }
    }, 
    {
      "op": "null", 
      "param": {}, 
      "name": "stage2_unit4_bn1_gamma", 
      "inputs": [], 
      "backward_source_id": -1
    }, 
    {
      "op": "null", 
      "param": {}, 
      "name": "stage2_unit4_bn1_beta", 
      "inputs": [], 
      "backward_source_id": -1
    }, 
    {
      "op": "BatchNorm", 
      "param": {
        "eps": "2e-05", 
        "fix_gamma": "False", 
        "momentum": "0.9", 
        "use_global_stats": "False"
      }, 
      "name": "stage2_unit4_bn1", 
      "inputs": [[128, 0], [129, 0], [130, 0]], 
      "backward_source_id": -1, 
      "attr": {"force_mirroring": "True"}
    }, 
    {
      "op": "Activation", 
      "param": {"act_type": "relu"}, 
      "name": "stage2_unit4_relu1", 
      "inputs": [[131, 0]], 
      "backward_source_id": -1, 
      "attr": {"force_mirroring": "True"}
    }, 
    {
      "op": "null", 
      "param": {}, 
      "name": "stage2_unit4_conv1_weight", 
      "inputs": [], 
      "backward_source_id": -1
    }, 
    {
      "op": "Convolution", 
      "param": {
        "cudnn_tune": "limited_workspace", 
        "dilate": "(1,1)", 
        "kernel": "(1,1)", 
        "no_bias": "True", 
        "num_filter": "128", 
        "num_group": "1", 
        "pad": "(0,0)", 
        "stride": "(1,1)", 
        "workspace": "512"
      }, 
      "name": "stage2_unit4_conv1", 
      "inputs": [[132, 0], [133, 0]], 
      "backward_source_id": -1, 
      "attr": {"force_mirroring": "True"}
    }, 
    {
      "op": "null", 
      "param": {}, 
      "name": "stage2_unit4_bn2_gamma", 
      "inputs": [], 
      "backward_source_id": -1
    }, 
    {
      "op": "null", 
      "param": {}, 
      "name": "stage2_unit4_bn2_beta", 
      "inputs": [], 
      "backward_source_id": -1
    }, 
    {
      "op": "BatchNorm", 
      "param": {
        "eps": "2e-05", 
        "fix_gamma": "False", 
        "momentum": "0.9", 
        "use_global_stats": "False"
      }, 
      "name": "stage2_unit4_bn2", 
      "inputs": [[134, 0], [135, 0], [136, 0]], 
      "backward_source_id": -1, 
      "attr": {"force_mirroring": "True"}
    }, 
    {
      "op": "Activation", 
      "param": {"act_type": "relu"}, 
      "name": "stage2_unit4_relu2", 
      "inputs": [[137, 0]], 
      "backward_source_id": -1, 
      "attr": {"force_mirroring": "True"}
    }, 
    {
      "op": "null", 
      "param": {}, 
      "name": "stage2_unit4_conv2_weight", 
      "inputs": [], 
      "backward_source_id": -1
    }, 
    {
      "op": "Convolution", 
      "param": {
        "cudnn_tune": "limited_workspace", 
        "dilate": "(1,1)", 
        "kernel": "(3,3)", 
        "no_bias": "True", 
        "num_filter": "128", 
        "num_group": "1", 
        "pad": "(1,1)", 
        "stride": "(1,1)", 
        "workspace": "512"
      }, 
      "name": "stage2_unit4_conv2", 
      "inputs": [[138, 0], [139, 0]], 
      "backward_source_id": -1, 
      "attr": {"force_mirroring": "True"}
    }, 
    {
      "op": "null", 
      "param": {}, 
      "name": "stage2_unit4_bn3_gamma", 
      "inputs": [], 
      "backward_source_id": -1
    }, 
    {
      "op": "null", 
      "param": {}, 
      "name": "stage2_unit4_bn3_beta", 
      "inputs": [], 
      "backward_source_id": -1
    }, 
    {
      "op": "BatchNorm", 
      "param": {
        "eps": "2e-05", 
        "fix_gamma": "False", 
        "momentum": "0.9", 
        "use_global_stats": "False"
      }, 
      "name": "stage2_unit4_bn3", 
      "inputs": [[140, 0], [141, 0], [142, 0]], 
      "backward_source_id": -1, 
      "attr": {"force_mirroring": "True"}
    }, 
    {
      "op": "Activation", 
      "param": {"act_type": "relu"}, 
      "name": "stage2_unit4_relu3", 
      "inputs": [[143, 0]], 
      "backward_source_id": -1, 
      "attr": {"force_mirroring": "True"}
    }, 
    {
      "op": "null", 
      "param": {}, 
      "name": "stage2_unit4_conv3_weight", 
      "inputs": [], 
      "backward_source_id": -1
    }, 
    {
      "op": "Convolution", 
      "param": {
        "cudnn_tune": "limited_workspace", 
        "dilate": "(1,1)", 
        "kernel": "(1,1)", 
        "no_bias": "True", 
        "num_filter": "512", 
        "num_group": "1", 
        "pad": "(0,0)", 
        "stride": "(1,1)", 
        "workspace": "512"
      }, 
      "name": "stage2_unit4_conv3", 
      "inputs": [[144, 0], [145, 0]], 
      "backward_source_id": -1, 
      "attr": {"force_mirroring": "True"}
    }, 
    {
      "op": "_Plus", 
      "param": {}, 
      "name": "_plus6", 
      "inputs": [[146, 0], [128, 0]], 
      "backward_source_id": -1, 
      "attr": {
        "force_mirroring": "True", 
        "mirror_stage": "True"
      }
    }, 
    {
      "op": "null", 
      "param": {}, 
      "name": "stage2_unit5_bn1_gamma", 
      "inputs": [], 
      "backward_source_id": -1
    }, 
    {
      "op": "null", 
      "param": {}, 
      "name": "stage2_unit5_bn1_beta", 
      "inputs": [], 
      "backward_source_id": -1
    }, 
    {
      "op": "BatchNorm", 
      "param": {
        "eps": "2e-05", 
        "fix_gamma": "False", 
        "momentum": "0.9", 
        "use_global_stats": "False"
      }, 
      "name": "stage2_unit5_bn1", 
      "inputs": [[147, 0], [148, 0], [149, 0]], 
      "backward_source_id": -1, 
      "attr": {"force_mirroring": "True"}
    }, 
    {
      "op": "Activation", 
      "param": {"act_type": "relu"}, 
      "name": "stage2_unit5_relu1", 
      "inputs": [[150, 0]], 
      "backward_source_id": -1, 
      "attr": {"force_mirroring": "True"}
    }, 
    {
      "op": "null", 
      "param": {}, 
      "name": "stage2_unit5_conv1_weight", 
      "inputs": [], 
      "backward_source_id": -1
    }, 
    {
      "op": "Convolution", 
      "param": {
        "cudnn_tune": "limited_workspace", 
        "dilate": "(1,1)", 
        "kernel": "(1,1)", 
        "no_bias": "True", 
        "num_filter": "128", 
        "num_group": "1", 
        "pad": "(0,0)", 
        "stride": "(1,1)", 
        "workspace": "512"
      }, 
      "name": "stage2_unit5_conv1", 
      "inputs": [[151, 0], [152, 0]], 
      "backward_source_id": -1, 
      "attr": {"force_mirroring": "True"}
    }, 
    {
      "op": "null", 
      "param": {}, 
      "name": "stage2_unit5_bn2_gamma", 
      "inputs": [], 
      "backward_source_id": -1
    }, 
    {
      "op": "null", 
      "param": {}, 
      "name": "stage2_unit5_bn2_beta", 
      "inputs": [], 
      "backward_source_id": -1
    }, 
    {
      "op": "BatchNorm", 
      "param": {
        "eps": "2e-05", 
        "fix_gamma": "False", 
        "momentum": "0.9", 
        "use_global_stats": "False"
      }, 
      "name": "stage2_unit5_bn2", 
      "inputs": [[153, 0], [154, 0], [155, 0]], 
      "backward_source_id": -1, 
      "attr": {"force_mirroring": "True"}
    }, 
    {
      "op": "Activation", 
      "param": {"act_type": "relu"}, 
      "name": "stage2_unit5_relu2", 
      "inputs": [[156, 0]], 
      "backward_source_id": -1, 
      "attr": {"force_mirroring": "True"}
    }, 
    {
      "op": "null", 
      "param": {}, 
      "name": "stage2_unit5_conv2_weight", 
      "inputs": [], 
      "backward_source_id": -1
    }, 
    {
      "op": "Convolution", 
      "param": {
        "cudnn_tune": "limited_workspace", 
        "dilate": "(1,1)", 
        "kernel": "(3,3)", 
        "no_bias": "True", 
        "num_filter": "128", 
        "num_group": "1", 
        "pad": "(1,1)", 
        "stride": "(1,1)", 
        "workspace": "512"
      }, 
      "name": "stage2_unit5_conv2", 
      "inputs": [[157, 0], [158, 0]], 
      "backward_source_id": -1, 
      "attr": {"force_mirroring": "True"}
    }, 
    {
      "op": "null", 
      "param": {}, 
      "name": "stage2_unit5_bn3_gamma", 
      "inputs": [], 
      "backward_source_id": -1
    }, 
    {
      "op": "null", 
      "param": {}, 
      "name": "stage2_unit5_bn3_beta", 
      "inputs": [], 
      "backward_source_id": -1
    }, 
    {
      "op": "BatchNorm", 
      "param": {
        "eps": "2e-05", 
        "fix_gamma": "False", 
        "momentum": "0.9", 
        "use_global_stats": "False"
      }, 
      "name": "stage2_unit5_bn3", 
      "inputs": [[159, 0], [160, 0], [161, 0]], 
      "backward_source_id": -1, 
      "attr": {"force_mirroring": "True"}
    }, 
    {
      "op": "Activation", 
      "param": {"act_type": "relu"}, 
      "name": "stage2_unit5_relu3", 
      "inputs": [[162, 0]], 
      "backward_source_id": -1, 
      "attr": {"force_mirroring": "True"}
    }, 
    {
      "op": "null", 
      "param": {}, 
      "name": "stage2_unit5_conv3_weight", 
      "inputs": [], 
      "backward_source_id": -1
    }, 
    {
      "op": "Convolution", 
      "param": {
        "cudnn_tune": "limited_workspace", 
        "dilate": "(1,1)", 
        "kernel": "(1,1)", 
        "no_bias": "True", 
        "num_filter": "512", 
        "num_group": "1", 
        "pad": "(0,0)", 
        "stride": "(1,1)", 
        "workspace": "512"
      }, 
      "name": "stage2_unit5_conv3", 
      "inputs": [[163, 0], [164, 0]], 
      "backward_source_id": -1, 
      "attr": {"force_mirroring": "True"}
    }, 
    {
      "op": "_Plus", 
      "param": {}, 
      "name": "_plus7", 
      "inputs": [[165, 0], [147, 0]], 
      "backward_source_id": -1, 
      "attr": {
        "force_mirroring": "True", 
        "mirror_stage": "True"
      }
    }, 
    {
      "op": "null", 
      "param": {}, 
      "name": "stage2_unit6_bn1_gamma", 
      "inputs": [], 
      "backward_source_id": -1
    }, 
    {
      "op": "null", 
      "param": {}, 
      "name": "stage2_unit6_bn1_beta", 
      "inputs": [], 
      "backward_source_id": -1
    }, 
    {
      "op": "BatchNorm", 
      "param": {
        "eps": "2e-05", 
        "fix_gamma": "False", 
        "momentum": "0.9", 
        "use_global_stats": "False"
      }, 
      "name": "stage2_unit6_bn1", 
      "inputs": [[166, 0], [167, 0], [168, 0]], 
      "backward_source_id": -1, 
      "attr": {"force_mirroring": "True"}
    }, 
    {
      "op": "Activation", 
      "param": {"act_type": "relu"}, 
      "name": "stage2_unit6_relu1", 
      "inputs": [[169, 0]], 
      "backward_source_id": -1, 
      "attr": {"force_mirroring": "True"}
    }, 
    {
      "op": "null", 
      "param": {}, 
      "name": "stage2_unit6_conv1_weight", 
      "inputs": [], 
      "backward_source_id": -1
    }, 
    {
      "op": "Convolution", 
      "param": {
        "cudnn_tune": "limited_workspace", 
        "dilate": "(1,1)", 
        "kernel": "(1,1)", 
        "no_bias": "True", 
        "num_filter": "128", 
        "num_group": "1", 
        "pad": "(0,0)", 
        "stride": "(1,1)", 
        "workspace": "512"
      }, 
      "name": "stage2_unit6_conv1", 
      "inputs": [[170, 0], [171, 0]], 
      "backward_source_id": -1, 
      "attr": {"force_mirroring": "True"}
    }, 
    {
      "op": "null", 
      "param": {}, 
      "name": "stage2_unit6_bn2_gamma", 
      "inputs": [], 
      "backward_source_id": -1
    }, 
    {
      "op": "null", 
      "param": {}, 
      "name": "stage2_unit6_bn2_beta", 
      "inputs": [], 
      "backward_source_id": -1
    }, 
    {
      "op": "BatchNorm", 
      "param": {
        "eps": "2e-05", 
        "fix_gamma": "False", 
        "momentum": "0.9", 
        "use_global_stats": "False"
      }, 
      "name": "stage2_unit6_bn2", 
      "inputs": [[172, 0], [173, 0], [174, 0]], 
      "backward_source_id": -1, 
      "attr": {"force_mirroring": "True"}
    }, 
    {
      "op": "Activation", 
      "param": {"act_type": "relu"}, 
      "name": "stage2_unit6_relu2", 
      "inputs": [[175, 0]], 
      "backward_source_id": -1, 
      "attr": {"force_mirroring": "True"}
    }, 
    {
      "op": "null", 
      "param": {}, 
      "name": "stage2_unit6_conv2_weight", 
      "inputs": [], 
      "backward_source_id": -1
    }, 
    {
      "op": "Convolution", 
      "param": {
        "cudnn_tune": "limited_workspace", 
        "dilate": "(1,1)", 
        "kernel": "(3,3)", 
        "no_bias": "True", 
        "num_filter": "128", 
        "num_group": "1", 
        "pad": "(1,1)", 
        "stride": "(1,1)", 
        "workspace": "512"
      }, 
      "name": "stage2_unit6_conv2", 
      "inputs": [[176, 0], [177, 0]], 
      "backward_source_id": -1, 
      "attr": {"force_mirroring": "True"}
    }, 
    {
      "op": "null", 
      "param": {}, 
      "name": "stage2_unit6_bn3_gamma", 
      "inputs": [], 
      "backward_source_id": -1
    }, 
    {
      "op": "null", 
      "param": {}, 
      "name": "stage2_unit6_bn3_beta", 
      "inputs": [], 
      "backward_source_id": -1
    }, 
    {
      "op": "BatchNorm", 
      "param": {
        "eps": "2e-05", 
        "fix_gamma": "False", 
        "momentum": "0.9", 
        "use_global_stats": "False"
      }, 
      "name": "stage2_unit6_bn3", 
      "inputs": [[178, 0], [179, 0], [180, 0]], 
      "backward_source_id": -1, 
      "attr": {"force_mirroring": "True"}
    }, 
    {
      "op": "Activation", 
      "param": {"act_type": "relu"}, 
      "name": "stage2_unit6_relu3", 
      "inputs": [[181, 0]], 
      "backward_source_id": -1, 
      "attr": {"force_mirroring": "True"}
    }, 
    {
      "op": "null", 
      "param": {}, 
      "name": "stage2_unit6_conv3_weight", 
      "inputs": [], 
      "backward_source_id": -1
    }, 
    {
      "op": "Convolution", 
      "param": {
        "cudnn_tune": "limited_workspace", 
        "dilate": "(1,1)", 
        "kernel": "(1,1)", 
        "no_bias": "True", 
        "num_filter": "512", 
        "num_group": "1", 
        "pad": "(0,0)", 
        "stride": "(1,1)", 
        "workspace": "512"
      }, 
      "name": "stage2_unit6_conv3", 
      "inputs": [[182, 0], [183, 0]], 
      "backward_source_id": -1, 
      "attr": {"force_mirroring": "True"}
    }, 
    {
      "op": "_Plus", 
      "param": {}, 
      "name": "_plus8", 
      "inputs": [[184, 0], [166, 0]], 
      "backward_source_id": -1, 
      "attr": {
        "force_mirroring": "True", 
        "mirror_stage": "True"
      }
    }, 
    {
      "op": "null", 
      "param": {}, 
      "name": "stage2_unit7_bn1_gamma", 
      "inputs": [], 
      "backward_source_id": -1
    }, 
    {
      "op": "null", 
      "param": {}, 
      "name": "stage2_unit7_bn1_beta", 
      "inputs": [], 
      "backward_source_id": -1
    }, 
    {
      "op": "BatchNorm", 
      "param": {
        "eps": "2e-05", 
        "fix_gamma": "False", 
        "momentum": "0.9", 
        "use_global_stats": "False"
      }, 
      "name": "stage2_unit7_bn1", 
      "inputs": [[185, 0], [186, 0], [187, 0]], 
      "backward_source_id": -1, 
      "attr": {"force_mirroring": "True"}
    }, 
    {
      "op": "Activation", 
      "param": {"act_type": "relu"}, 
      "name": "stage2_unit7_relu1", 
      "inputs": [[188, 0]], 
      "backward_source_id": -1, 
      "attr": {"force_mirroring": "True"}
    }, 
    {
      "op": "null", 
      "param": {}, 
      "name": "stage2_unit7_conv1_weight", 
      "inputs": [], 
      "backward_source_id": -1
    }, 
    {
      "op": "Convolution", 
      "param": {
        "cudnn_tune": "limited_workspace", 
        "dilate": "(1,1)", 
        "kernel": "(1,1)", 
        "no_bias": "True", 
        "num_filter": "128", 
        "num_group": "1", 
        "pad": "(0,0)", 
        "stride": "(1,1)", 
        "workspace": "512"
      }, 
      "name": "stage2_unit7_conv1", 
      "inputs": [[189, 0], [190, 0]], 
      "backward_source_id": -1, 
      "attr": {"force_mirroring": "True"}
    }, 
    {
      "op": "null", 
      "param": {}, 
      "name": "stage2_unit7_bn2_gamma", 
      "inputs": [], 
      "backward_source_id": -1
    }, 
    {
      "op": "null", 
      "param": {}, 
      "name": "stage2_unit7_bn2_beta", 
      "inputs": [], 
      "backward_source_id": -1
    }, 
    {
      "op": "BatchNorm", 
      "param": {
        "eps": "2e-05", 
        "fix_gamma": "False", 
        "momentum": "0.9", 
        "use_global_stats": "False"
      }, 
      "name": "stage2_unit7_bn2", 
      "inputs": [[191, 0], [192, 0], [193, 0]], 
      "backward_source_id": -1, 
      "attr": {"force_mirroring": "True"}
    }, 
    {
      "op": "Activation", 
      "param": {"act_type": "relu"}, 
      "name": "stage2_unit7_relu2", 
      "inputs": [[194, 0]], 
      "backward_source_id": -1, 
      "attr": {"force_mirroring": "True"}
    }, 
    {
      "op": "null", 
      "param": {}, 
      "name": "stage2_unit7_conv2_weight", 
      "inputs": [], 
      "backward_source_id": -1
    }, 
    {
      "op": "Convolution", 
      "param": {
        "cudnn_tune": "limited_workspace", 
        "dilate": "(1,1)", 
        "kernel": "(3,3)", 
        "no_bias": "True", 
        "num_filter": "128", 
        "num_group": "1", 
        "pad": "(1,1)", 
        "stride": "(1,1)", 
        "workspace": "512"
      }, 
      "name": "stage2_unit7_conv2", 
      "inputs": [[195, 0], [196, 0]], 
      "backward_source_id": -1, 
      "attr": {"force_mirroring": "True"}
    }, 
    {
      "op": "null", 
      "param": {}, 
      "name": "stage2_unit7_bn3_gamma", 
      "inputs": [], 
      "backward_source_id": -1
    }, 
    {
      "op": "null", 
      "param": {}, 
      "name": "stage2_unit7_bn3_beta", 
      "inputs": [], 
      "backward_source_id": -1
    }, 
    {
      "op": "BatchNorm", 
      "param": {
        "eps": "2e-05", 
        "fix_gamma": "False", 
        "momentum": "0.9", 
        "use_global_stats": "False"
      }, 
      "name": "stage2_unit7_bn3", 
      "inputs": [[197, 0], [198, 0], [199, 0]], 
      "backward_source_id": -1, 
      "attr": {"force_mirroring": "True"}
    }, 
    {
      "op": "Activation", 
      "param": {"act_type": "relu"}, 
      "name": "stage2_unit7_relu3", 
      "inputs": [[200, 0]], 
      "backward_source_id": -1, 
      "attr": {"force_mirroring": "True"}
    }, 
    {
      "op": "null", 
      "param": {}, 
      "name": "stage2_unit7_conv3_weight", 
      "inputs": [], 
      "backward_source_id": -1
    }, 
    {
      "op": "Convolution", 
      "param": {
        "cudnn_tune": "limited_workspace", 
        "dilate": "(1,1)", 
        "kernel": "(1,1)", 
        "no_bias": "True", 
        "num_filter": "512", 
        "num_group": "1", 
        "pad": "(0,0)", 
        "stride": "(1,1)", 
        "workspace": "512"
      }, 
      "name": "stage2_unit7_conv3", 
      "inputs": [[201, 0], [202, 0]], 
      "backward_source_id": -1, 
      "attr": {"force_mirroring": "True"}
    }, 
    {
      "op": "_Plus", 
      "param": {}, 
      "name": "_plus9", 
      "inputs": [[203, 0], [185, 0]], 
      "backward_source_id": -1, 
      "attr": {
        "force_mirroring": "False", 
        "mirror_stage": "True"
      }
    }, 
    {
      "op": "null", 
      "param": {}, 
      "name": "stage2_unit8_bn1_gamma", 
      "inputs": [], 
      "backward_source_id": -1
    }, 
    {
      "op": "null", 
      "param": {}, 
      "name": "stage2_unit8_bn1_beta", 
      "inputs": [], 
      "backward_source_id": -1
    }, 
    {
      "op": "BatchNorm", 
      "param": {
        "eps": "2e-05", 
        "fix_gamma": "False", 
        "momentum": "0.9", 
        "use_global_stats": "False"
      }, 
      "name": "stage2_unit8_bn1", 
      "inputs": [[204, 0], [205, 0], [206, 0]], 
      "backward_source_id": -1, 
      "attr": {"force_mirroring": "True"}
    }, 
    {
      "op": "Activation", 
      "param": {"act_type": "relu"}, 
      "name": "stage2_unit8_relu1", 
      "inputs": [[207, 0]], 
      "backward_source_id": -1, 
      "attr": {"force_mirroring": "True"}
    }, 
    {
      "op": "null", 
      "param": {}, 
      "name": "stage2_unit8_conv1_weight", 
      "inputs": [], 
      "backward_source_id": -1
    }, 
    {
      "op": "Convolution", 
      "param": {
        "cudnn_tune": "limited_workspace", 
        "dilate": "(1,1)", 
        "kernel": "(1,1)", 
        "no_bias": "True", 
        "num_filter": "128", 
        "num_group": "1", 
        "pad": "(0,0)", 
        "stride": "(1,1)", 
        "workspace": "512"
      }, 
      "name": "stage2_unit8_conv1", 
      "inputs": [[208, 0], [209, 0]], 
      "backward_source_id": -1, 
      "attr": {"force_mirroring": "True"}
    }, 
    {
      "op": "null", 
      "param": {}, 
      "name": "stage2_unit8_bn2_gamma", 
      "inputs": [], 
      "backward_source_id": -1
    }, 
    {
      "op": "null", 
      "param": {}, 
      "name": "stage2_unit8_bn2_beta", 
      "inputs": [], 
      "backward_source_id": -1
    }, 
    {
      "op": "BatchNorm", 
      "param": {
        "eps": "2e-05", 
        "fix_gamma": "False", 
        "momentum": "0.9", 
        "use_global_stats": "False"
      }, 
      "name": "stage2_unit8_bn2", 
      "inputs": [[210, 0], [211, 0], [212, 0]], 
      "backward_source_id": -1, 
      "attr": {"force_mirroring": "True"}
    }, 
    {
      "op": "Activation", 
      "param": {"act_type": "relu"}, 
      "name": "stage2_unit8_relu2", 
      "inputs": [[213, 0]], 
      "backward_source_id": -1, 
      "attr": {"force_mirroring": "True"}
    }, 
    {
      "op": "null", 
      "param": {}, 
      "name": "stage2_unit8_conv2_weight", 
      "inputs": [], 
      "backward_source_id": -1
    }, 
    {
      "op": "Convolution", 
      "param": {
        "cudnn_tune": "limited_workspace", 
        "dilate": "(1,1)", 
        "kernel": "(3,3)", 
        "no_bias": "True", 
        "num_filter": "128", 
        "num_group": "1", 
        "pad": "(1,1)", 
        "stride": "(1,1)", 
        "workspace": "512"
      }, 
      "name": "stage2_unit8_conv2", 
      "inputs": [[214, 0], [215, 0]], 
      "backward_source_id": -1, 
      "attr": {"force_mirroring": "True"}
    }, 
    {
      "op": "null", 
      "param": {}, 
      "name": "stage2_unit8_bn3_gamma", 
      "inputs": [], 
      "backward_source_id": -1
    }, 
    {
      "op": "null", 
      "param": {}, 
      "name": "stage2_unit8_bn3_beta", 
      "inputs": [], 
      "backward_source_id": -1
    }, 
    {
      "op": "BatchNorm", 
      "param": {
        "eps": "2e-05", 
        "fix_gamma": "False", 
        "momentum": "0.9", 
        "use_global_stats": "False"
      }, 
      "name": "stage2_unit8_bn3", 
      "inputs": [[216, 0], [217, 0], [218, 0]], 
      "backward_source_id": -1, 
      "attr": {"force_mirroring": "True"}
    }, 
    {
      "op": "Activation", 
      "param": {"act_type": "relu"}, 
      "name": "stage2_unit8_relu3", 
      "inputs": [[219, 0]], 
      "backward_source_id": -1, 
      "attr": {"force_mirroring": "True"}
    }, 
    {
      "op": "null", 
      "param": {}, 
      "name": "stage2_unit8_conv3_weight", 
      "inputs": [], 
      "backward_source_id": -1
    }, 
    {
      "op": "Convolution", 
      "param": {
        "cudnn_tune": "limited_workspace", 
        "dilate": "(1,1)", 
        "kernel": "(1,1)", 
        "no_bias": "True", 
        "num_filter": "512", 
        "num_group": "1", 
        "pad": "(0,0)", 
        "stride": "(1,1)", 
        "workspace": "512"
      }, 
      "name": "stage2_unit8_conv3", 
      "inputs": [[220, 0], [221, 0]], 
      "backward_source_id": -1, 
      "attr": {"force_mirroring": "True"}
    }, 
    {
      "op": "_Plus", 
      "param": {}, 
      "name": "_plus10", 
      "inputs": [[222, 0], [204, 0]], 
      "backward_source_id": -1, 
      "attr": {
        "force_mirroring": "True", 
        "mirror_stage": "True"
      }
    }, 
    {
      "op": "null", 
      "param": {}, 
      "name": "stage2_unit9_bn1_gamma", 
      "inputs": [], 
      "backward_source_id": -1
    }, 
    {
      "op": "null", 
      "param": {}, 
      "name": "stage2_unit9_bn1_beta", 
      "inputs": [], 
      "backward_source_id": -1
    }, 
    {
      "op": "BatchNorm", 
      "param": {
        "eps": "2e-05", 
        "fix_gamma": "False", 
        "momentum": "0.9", 
        "use_global_stats": "False"
      }, 
      "name": "stage2_unit9_bn1", 
      "inputs": [[223, 0], [224, 0], [225, 0]], 
      "backward_source_id": -1, 
      "attr": {"force_mirroring": "True"}
    }, 
    {
      "op": "Activation", 
      "param": {"act_type": "relu"}, 
      "name": "stage2_unit9_relu1", 
      "inputs": [[226, 0]], 
      "backward_source_id": -1, 
      "attr": {"force_mirroring": "True"}
    }, 
    {
      "op": "null", 
      "param": {}, 
      "name": "stage2_unit9_conv1_weight", 
      "inputs": [], 
      "backward_source_id": -1
    }, 
    {
      "op": "Convolution", 
      "param": {
        "cudnn_tune": "limited_workspace", 
        "dilate": "(1,1)", 
        "kernel": "(1,1)", 
        "no_bias": "True", 
        "num_filter": "128", 
        "num_group": "1", 
        "pad": "(0,0)", 
        "stride": "(1,1)", 
        "workspace": "512"
      }, 
      "name": "stage2_unit9_conv1", 
      "inputs": [[227, 0], [228, 0]], 
      "backward_source_id": -1, 
      "attr": {"force_mirroring": "True"}
    }, 
    {
      "op": "null", 
      "param": {}, 
      "name": "stage2_unit9_bn2_gamma", 
      "inputs": [], 
      "backward_source_id": -1
    }, 
    {
      "op": "null", 
      "param": {}, 
      "name": "stage2_unit9_bn2_beta", 
      "inputs": [], 
      "backward_source_id": -1
    }, 
    {
      "op": "BatchNorm", 
      "param": {
        "eps": "2e-05", 
        "fix_gamma": "False", 
        "momentum": "0.9", 
        "use_global_stats": "False"
      }, 
      "name": "stage2_unit9_bn2", 
      "inputs": [[229, 0], [230, 0], [231, 0]], 
      "backward_source_id": -1, 
      "attr": {"force_mirroring": "True"}
    }, 
    {
      "op": "Activation", 
      "param": {"act_type": "relu"}, 
      "name": "stage2_unit9_relu2", 
      "inputs": [[232, 0]], 
      "backward_source_id": -1, 
      "attr": {"force_mirroring": "True"}
    }, 
    {
      "op": "null", 
      "param": {}, 
      "name": "stage2_unit9_conv2_weight", 
      "inputs": [], 
      "backward_source_id": -1
    }, 
    {
      "op": "Convolution", 
      "param": {
        "cudnn_tune": "limited_workspace", 
        "dilate": "(1,1)", 
        "kernel": "(3,3)", 
        "no_bias": "True", 
        "num_filter": "128", 
        "num_group": "1", 
        "pad": "(1,1)", 
        "stride": "(1,1)", 
        "workspace": "512"
      }, 
      "name": "stage2_unit9_conv2", 
      "inputs": [[233, 0], [234, 0]], 
      "backward_source_id": -1, 
      "attr": {"force_mirroring": "True"}
    }, 
    {
      "op": "null", 
      "param": {}, 
      "name": "stage2_unit9_bn3_gamma", 
      "inputs": [], 
      "backward_source_id": -1
    }, 
    {
      "op": "null", 
      "param": {}, 
      "name": "stage2_unit9_bn3_beta", 
      "inputs": [], 
      "backward_source_id": -1
    }, 
    {
      "op": "BatchNorm", 
      "param": {
        "eps": "2e-05", 
        "fix_gamma": "False", 
        "momentum": "0.9", 
        "use_global_stats": "False"
      }, 
      "name": "stage2_unit9_bn3", 
      "inputs": [[235, 0], [236, 0], [237, 0]], 
      "backward_source_id": -1, 
      "attr": {"force_mirroring": "True"}
    }, 
    {
      "op": "Activation", 
      "param": {"act_type": "relu"}, 
      "name": "stage2_unit9_relu3", 
      "inputs": [[238, 0]], 
      "backward_source_id": -1, 
      "attr": {"force_mirroring": "True"}
    }, 
    {
      "op": "null", 
      "param": {}, 
      "name": "stage2_unit9_conv3_weight", 
      "inputs": [], 
      "backward_source_id": -1
    }, 
    {
      "op": "Convolution", 
      "param": {
        "cudnn_tune": "limited_workspace", 
        "dilate": "(1,1)", 
        "kernel": "(1,1)", 
        "no_bias": "True", 
        "num_filter": "512", 
        "num_group": "1", 
        "pad": "(0,0)", 
        "stride": "(1,1)", 
        "workspace": "512"
      }, 
      "name": "stage2_unit9_conv3", 
      "inputs": [[239, 0], [240, 0]], 
      "backward_source_id": -1, 
      "attr": {"force_mirroring": "True"}
    }, 
    {
      "op": "_Plus", 
      "param": {}, 
      "name": "_plus11", 
      "inputs": [[241, 0], [223, 0]], 
      "backward_source_id": -1, 
      "attr": {
        "force_mirroring": "True", 
        "mirror_stage": "True"
      }
    }, 
    {
      "op": "null", 
      "param": {}, 
      "name": "stage2_unit10_bn1_gamma", 
      "inputs": [], 
      "backward_source_id": -1
    }, 
    {
      "op": "null", 
      "param": {}, 
      "name": "stage2_unit10_bn1_beta", 
      "inputs": [], 
      "backward_source_id": -1
    }, 
    {
      "op": "BatchNorm", 
      "param": {
        "eps": "2e-05", 
        "fix_gamma": "False", 
        "momentum": "0.9", 
        "use_global_stats": "False"
      }, 
      "name": "stage2_unit10_bn1", 
      "inputs": [[242, 0], [243, 0], [244, 0]], 
      "backward_source_id": -1, 
      "attr": {"force_mirroring": "True"}
    }, 
    {
      "op": "Activation", 
      "param": {"act_type": "relu"}, 
      "name": "stage2_unit10_relu1", 
      "inputs": [[245, 0]], 
      "backward_source_id": -1, 
      "attr": {"force_mirroring": "True"}
    }, 
    {
      "op": "null", 
      "param": {}, 
      "name": "stage2_unit10_conv1_weight", 
      "inputs": [], 
      "backward_source_id": -1
    }, 
    {
      "op": "Convolution", 
      "param": {
        "cudnn_tune": "limited_workspace", 
        "dilate": "(1,1)", 
        "kernel": "(1,1)", 
        "no_bias": "True", 
        "num_filter": "128", 
        "num_group": "1", 
        "pad": "(0,0)", 
        "stride": "(1,1)", 
        "workspace": "512"
      }, 
      "name": "stage2_unit10_conv1", 
      "inputs": [[246, 0], [247, 0]], 
      "backward_source_id": -1, 
      "attr": {"force_mirroring": "True"}
    }, 
    {
      "op": "null", 
      "param": {}, 
      "name": "stage2_unit10_bn2_gamma", 
      "inputs": [], 
      "backward_source_id": -1
    }, 
    {
      "op": "null", 
      "param": {}, 
      "name": "stage2_unit10_bn2_beta", 
      "inputs": [], 
      "backward_source_id": -1
    }, 
    {
      "op": "BatchNorm", 
      "param": {
        "eps": "2e-05", 
        "fix_gamma": "False", 
        "momentum": "0.9", 
        "use_global_stats": "False"
      }, 
      "name": "stage2_unit10_bn2", 
      "inputs": [[248, 0], [249, 0], [250, 0]], 
      "backward_source_id": -1, 
      "attr": {"force_mirroring": "True"}
    }, 
    {
      "op": "Activation", 
      "param": {"act_type": "relu"}, 
      "name": "stage2_unit10_relu2", 
      "inputs": [[251, 0]], 
      "backward_source_id": -1, 
      "attr": {"force_mirroring": "True"}
    }, 
    {
      "op": "null", 
      "param": {}, 
      "name": "stage2_unit10_conv2_weight", 
      "inputs": [], 
      "backward_source_id": -1
    }, 
    {
      "op": "Convolution", 
      "param": {
        "cudnn_tune": "limited_workspace", 
        "dilate": "(1,1)", 
        "kernel": "(3,3)", 
        "no_bias": "True", 
        "num_filter": "128", 
        "num_group": "1", 
        "pad": "(1,1)", 
        "stride": "(1,1)", 
        "workspace": "512"
      }, 
      "name": "stage2_unit10_conv2", 
      "inputs": [[252, 0], [253, 0]], 
      "backward_source_id": -1, 
      "attr": {"force_mirroring": "True"}
    }, 
    {
      "op": "null", 
      "param": {}, 
      "name": "stage2_unit10_bn3_gamma", 
      "inputs": [], 
      "backward_source_id": -1
    }, 
    {
      "op": "null", 
      "param": {}, 
      "name": "stage2_unit10_bn3_beta", 
      "inputs": [], 
      "backward_source_id": -1
    }, 
    {
      "op": "BatchNorm", 
      "param": {
        "eps": "2e-05", 
        "fix_gamma": "False", 
        "momentum": "0.9", 
        "use_global_stats": "False"
      }, 
      "name": "stage2_unit10_bn3", 
      "inputs": [[254, 0], [255, 0], [256, 0]], 
      "backward_source_id": -1, 
      "attr": {"force_mirroring": "True"}
    }, 
    {
      "op": "Activation", 
      "param": {"act_type": "relu"}, 
      "name": "stage2_unit10_relu3", 
      "inputs": [[257, 0]], 
      "backward_source_id": -1, 
      "attr": {"force_mirroring": "True"}
    }, 
    {
      "op": "null", 
      "param": {}, 
      "name": "stage2_unit10_conv3_weight", 
      "inputs": [], 
      "backward_source_id": -1
    }, 
    {
      "op": "Convolution", 
      "param": {
        "cudnn_tune": "limited_workspace", 
        "dilate": "(1,1)", 
        "kernel": "(1,1)", 
        "no_bias": "True", 
        "num_filter": "512", 
        "num_group": "1", 
        "pad": "(0,0)", 
        "stride": "(1,1)", 
        "workspace": "512"
      }, 
      "name": "stage2_unit10_conv3", 
      "inputs": [[258, 0], [259, 0]], 
      "backward_source_id": -1, 
      "attr": {"force_mirroring": "True"}
    }, 
    {
      "op": "_Plus", 
      "param": {}, 
      "name": "_plus12", 
      "inputs": [[260, 0], [242, 0]], 
      "backward_source_id": -1, 
      "attr": {
        "force_mirroring": "True", 
        "mirror_stage": "True"
      }
    }, 
    {
      "op": "null", 
      "param": {}, 
      "name": "stage2_unit11_bn1_gamma", 
      "inputs": [], 
      "backward_source_id": -1
    }, 
    {
      "op": "null", 
      "param": {}, 
      "name": "stage2_unit11_bn1_beta", 
      "inputs": [], 
      "backward_source_id": -1
    }, 
    {
      "op": "BatchNorm", 
      "param": {
        "eps": "2e-05", 
        "fix_gamma": "False", 
        "momentum": "0.9", 
        "use_global_stats": "False"
      }, 
      "name": "stage2_unit11_bn1", 
      "inputs": [[261, 0], [262, 0], [263, 0]], 
      "backward_source_id": -1, 
      "attr": {"force_mirroring": "True"}
    }, 
    {
      "op": "Activation", 
      "param": {"act_type": "relu"}, 
      "name": "stage2_unit11_relu1", 
      "inputs": [[264, 0]], 
      "backward_source_id": -1, 
      "attr": {"force_mirroring": "True"}
    }, 
    {
      "op": "null", 
      "param": {}, 
      "name": "stage2_unit11_conv1_weight", 
      "inputs": [], 
      "backward_source_id": -1
    }, 
    {
      "op": "Convolution", 
      "param": {
        "cudnn_tune": "limited_workspace", 
        "dilate": "(1,1)", 
        "kernel": "(1,1)", 
        "no_bias": "True", 
        "num_filter": "128", 
        "num_group": "1", 
        "pad": "(0,0)", 
        "stride": "(1,1)", 
        "workspace": "512"
      }, 
      "name": "stage2_unit11_conv1", 
      "inputs": [[265, 0], [266, 0]], 
      "backward_source_id": -1, 
      "attr": {"force_mirroring": "True"}
    }, 
    {
      "op": "null", 
      "param": {}, 
      "name": "stage2_unit11_bn2_gamma", 
      "inputs": [], 
      "backward_source_id": -1
    }, 
    {
      "op": "null", 
      "param": {}, 
      "name": "stage2_unit11_bn2_beta", 
      "inputs": [], 
      "backward_source_id": -1
    }, 
    {
      "op": "BatchNorm", 
      "param": {
        "eps": "2e-05", 
        "fix_gamma": "False", 
        "momentum": "0.9", 
        "use_global_stats": "False"
      }, 
      "name": "stage2_unit11_bn2", 
      "inputs": [[267, 0], [268, 0], [269, 0]], 
      "backward_source_id": -1, 
      "attr": {"force_mirroring": "True"}
    }, 
    {
      "op": "Activation", 
      "param": {"act_type": "relu"}, 
      "name": "stage2_unit11_relu2", 
      "inputs": [[270, 0]], 
      "backward_source_id": -1, 
      "attr": {"force_mirroring": "True"}
    }, 
    {
      "op": "null", 
      "param": {}, 
      "name": "stage2_unit11_conv2_weight", 
      "inputs": [], 
      "backward_source_id": -1
    }, 
    {
      "op": "Convolution", 
      "param": {
        "cudnn_tune": "limited_workspace", 
        "dilate": "(1,1)", 
        "kernel": "(3,3)", 
        "no_bias": "True", 
        "num_filter": "128", 
        "num_group": "1", 
        "pad": "(1,1)", 
        "stride": "(1,1)", 
        "workspace": "512"
      }, 
      "name": "stage2_unit11_conv2", 
      "inputs": [[271, 0], [272, 0]], 
      "backward_source_id": -1, 
      "attr": {"force_mirroring": "True"}
    }, 
    {
      "op": "null", 
      "param": {}, 
      "name": "stage2_unit11_bn3_gamma", 
      "inputs": [], 
      "backward_source_id": -1
    }, 
    {
      "op": "null", 
      "param": {}, 
      "name": "stage2_unit11_bn3_beta", 
      "inputs": [], 
      "backward_source_id": -1
    }, 
    {
      "op": "BatchNorm", 
      "param": {
        "eps": "2e-05", 
        "fix_gamma": "False", 
        "momentum": "0.9", 
        "use_global_stats": "False"
      }, 
      "name": "stage2_unit11_bn3", 
      "inputs": [[273, 0], [274, 0], [275, 0]], 
      "backward_source_id": -1, 
      "attr": {"force_mirroring": "True"}
    }, 
    {
      "op": "Activation", 
      "param": {"act_type": "relu"}, 
      "name": "stage2_unit11_relu3", 
      "inputs": [[276, 0]], 
      "backward_source_id": -1, 
      "attr": {"force_mirroring": "True"}
    }, 
    {
      "op": "null", 
      "param": {}, 
      "name": "stage2_unit11_conv3_weight", 
      "inputs": [], 
      "backward_source_id": -1
    }, 
    {
      "op": "Convolution", 
      "param": {
        "cudnn_tune": "limited_workspace", 
        "dilate": "(1,1)", 
        "kernel": "(1,1)", 
        "no_bias": "True", 
        "num_filter": "512", 
        "num_group": "1", 
        "pad": "(0,0)", 
        "stride": "(1,1)", 
        "workspace": "512"
      }, 
      "name": "stage2_unit11_conv3", 
      "inputs": [[277, 0], [278, 0]], 
      "backward_source_id": -1, 
      "attr": {"force_mirroring": "True"}
    }, 
    {
      "op": "_Plus", 
      "param": {}, 
      "name": "_plus13", 
      "inputs": [[279, 0], [261, 0]], 
      "backward_source_id": -1, 
      "attr": {
        "force_mirroring": "True", 
        "mirror_stage": "True"
      }
    }, 
    {
      "op": "null", 
      "param": {}, 
      "name": "stage2_unit12_bn1_gamma", 
      "inputs": [], 
      "backward_source_id": -1
    }, 
    {
      "op": "null", 
      "param": {}, 
      "name": "stage2_unit12_bn1_beta", 
      "inputs": [], 
      "backward_source_id": -1
    }, 
    {
      "op": "BatchNorm", 
      "param": {
        "eps": "2e-05", 
        "fix_gamma": "False", 
        "momentum": "0.9", 
        "use_global_stats": "False"
      }, 
      "name": "stage2_unit12_bn1", 
      "inputs": [[280, 0], [281, 0], [282, 0]], 
      "backward_source_id": -1, 
      "attr": {"force_mirroring": "True"}
    }, 
    {
      "op": "Activation", 
      "param": {"act_type": "relu"}, 
      "name": "stage2_unit12_relu1", 
      "inputs": [[283, 0]], 
      "backward_source_id": -1, 
      "attr": {"force_mirroring": "True"}
    }, 
    {
      "op": "null", 
      "param": {}, 
      "name": "stage2_unit12_conv1_weight", 
      "inputs": [], 
      "backward_source_id": -1
    }, 
    {
      "op": "Convolution", 
      "param": {
        "cudnn_tune": "limited_workspace", 
        "dilate": "(1,1)", 
        "kernel": "(1,1)", 
        "no_bias": "True", 
        "num_filter": "128", 
        "num_group": "1", 
        "pad": "(0,0)", 
        "stride": "(1,1)", 
        "workspace": "512"
      }, 
      "name": "stage2_unit12_conv1", 
      "inputs": [[284, 0], [285, 0]], 
      "backward_source_id": -1, 
      "attr": {"force_mirroring": "True"}
    }, 
    {
      "op": "null", 
      "param": {}, 
      "name": "stage2_unit12_bn2_gamma", 
      "inputs": [], 
      "backward_source_id": -1
    }, 
    {
      "op": "null", 
      "param": {}, 
      "name": "stage2_unit12_bn2_beta", 
      "inputs": [], 
      "backward_source_id": -1
    }, 
    {
      "op": "BatchNorm", 
      "param": {
        "eps": "2e-05", 
        "fix_gamma": "False", 
        "momentum": "0.9", 
        "use_global_stats": "False"
      }, 
      "name": "stage2_unit12_bn2", 
      "inputs": [[286, 0], [287, 0], [288, 0]], 
      "backward_source_id": -1, 
      "attr": {"force_mirroring": "True"}
    }, 
    {
      "op": "Activation", 
      "param": {"act_type": "relu"}, 
      "name": "stage2_unit12_relu2", 
      "inputs": [[289, 0]], 
      "backward_source_id": -1, 
      "attr": {"force_mirroring": "True"}
    }, 
    {
      "op": "null", 
      "param": {}, 
      "name": "stage2_unit12_conv2_weight", 
      "inputs": [], 
      "backward_source_id": -1
    }, 
    {
      "op": "Convolution", 
      "param": {
        "cudnn_tune": "limited_workspace", 
        "dilate": "(1,1)", 
        "kernel": "(3,3)", 
        "no_bias": "True", 
        "num_filter": "128", 
        "num_group": "1", 
        "pad": "(1,1)", 
        "stride": "(1,1)", 
        "workspace": "512"
      }, 
      "name": "stage2_unit12_conv2", 
      "inputs": [[290, 0], [291, 0]], 
      "backward_source_id": -1, 
      "attr": {"force_mirroring": "True"}
    }, 
    {
      "op": "null", 
      "param": {}, 
      "name": "stage2_unit12_bn3_gamma", 
      "inputs": [], 
      "backward_source_id": -1
    }, 
    {
      "op": "null", 
      "param": {}, 
      "name": "stage2_unit12_bn3_beta", 
      "inputs": [], 
      "backward_source_id": -1
    }, 
    {
      "op": "BatchNorm", 
      "param": {
        "eps": "2e-05", 
        "fix_gamma": "False", 
        "momentum": "0.9", 
        "use_global_stats": "False"
      }, 
      "name": "stage2_unit12_bn3", 
      "inputs": [[292, 0], [293, 0], [294, 0]], 
      "backward_source_id": -1, 
      "attr": {"force_mirroring": "True"}
    }, 
    {
      "op": "Activation", 
      "param": {"act_type": "relu"}, 
      "name": "stage2_unit12_relu3", 
      "inputs": [[295, 0]], 
      "backward_source_id": -1, 
      "attr": {"force_mirroring": "True"}
    }, 
    {
      "op": "null", 
      "param": {}, 
      "name": "stage2_unit12_conv3_weight", 
      "inputs": [], 
      "backward_source_id": -1
    }, 
    {
      "op": "Convolution", 
      "param": {
        "cudnn_tune": "limited_workspace", 
        "dilate": "(1,1)", 
        "kernel": "(1,1)", 
        "no_bias": "True", 
        "num_filter": "512", 
        "num_group": "1", 
        "pad": "(0,0)", 
        "stride": "(1,1)", 
        "workspace": "512"
      }, 
      "name": "stage2_unit12_conv3", 
      "inputs": [[296, 0], [297, 0]], 
      "backward_source_id": -1, 
      "attr": {"force_mirroring": "True"}
    }, 
    {
      "op": "_Plus", 
      "param": {}, 
      "name": "_plus14", 
      "inputs": [[298, 0], [280, 0]], 
      "backward_source_id": -1, 
      "attr": {
        "force_mirroring": "False", 
        "mirror_stage": "True"
      }
    }, 
    {
      "op": "null", 
      "param": {}, 
      "name": "stage2_unit13_bn1_gamma", 
      "inputs": [], 
      "backward_source_id": -1
    }, 
    {
      "op": "null", 
      "param": {}, 
      "name": "stage2_unit13_bn1_beta", 
      "inputs": [], 
      "backward_source_id": -1
    }, 
    {
      "op": "BatchNorm", 
      "param": {
        "eps": "2e-05", 
        "fix_gamma": "False", 
        "momentum": "0.9", 
        "use_global_stats": "False"
      }, 
      "name": "stage2_unit13_bn1", 
      "inputs": [[299, 0], [300, 0], [301, 0]], 
      "backward_source_id": -1, 
      "attr": {"force_mirroring": "True"}
    }, 
    {
      "op": "Activation", 
      "param": {"act_type": "relu"}, 
      "name": "stage2_unit13_relu1", 
      "inputs": [[302, 0]], 
      "backward_source_id": -1, 
      "attr": {"force_mirroring": "True"}
    }, 
    {
      "op": "null", 
      "param": {}, 
      "name": "stage2_unit13_conv1_weight", 
      "inputs": [], 
      "backward_source_id": -1
    }, 
    {
      "op": "Convolution", 
      "param": {
        "cudnn_tune": "limited_workspace", 
        "dilate": "(1,1)", 
        "kernel": "(1,1)", 
        "no_bias": "True", 
        "num_filter": "128", 
        "num_group": "1", 
        "pad": "(0,0)", 
        "stride": "(1,1)", 
        "workspace": "512"
      }, 
      "name": "stage2_unit13_conv1", 
      "inputs": [[303, 0], [304, 0]], 
      "backward_source_id": -1, 
      "attr": {"force_mirroring": "True"}
    }, 
    {
      "op": "null", 
      "param": {}, 
      "name": "stage2_unit13_bn2_gamma", 
      "inputs": [], 
      "backward_source_id": -1
    }, 
    {
      "op": "null", 
      "param": {}, 
      "name": "stage2_unit13_bn2_beta", 
      "inputs": [], 
      "backward_source_id": -1
    }, 
    {
      "op": "BatchNorm", 
      "param": {
        "eps": "2e-05", 
        "fix_gamma": "False", 
        "momentum": "0.9", 
        "use_global_stats": "False"
      }, 
      "name": "stage2_unit13_bn2", 
      "inputs": [[305, 0], [306, 0], [307, 0]], 
      "backward_source_id": -1, 
      "attr": {"force_mirroring": "True"}
    }, 
    {
      "op": "Activation", 
      "param": {"act_type": "relu"}, 
      "name": "stage2_unit13_relu2", 
      "inputs": [[308, 0]], 
      "backward_source_id": -1, 
      "attr": {"force_mirroring": "True"}
    }, 
    {
      "op": "null", 
      "param": {}, 
      "name": "stage2_unit13_conv2_weight", 
      "inputs": [], 
      "backward_source_id": -1
    }, 
    {
      "op": "Convolution", 
      "param": {
        "cudnn_tune": "limited_workspace", 
        "dilate": "(1,1)", 
        "kernel": "(3,3)", 
        "no_bias": "True", 
        "num_filter": "128", 
        "num_group": "1", 
        "pad": "(1,1)", 
        "stride": "(1,1)", 
        "workspace": "512"
      }, 
      "name": "stage2_unit13_conv2", 
      "inputs": [[309, 0], [310, 0]], 
      "backward_source_id": -1, 
      "attr": {"force_mirroring": "True"}
    }, 
    {
      "op": "null", 
      "param": {}, 
      "name": "stage2_unit13_bn3_gamma", 
      "inputs": [], 
      "backward_source_id": -1
    }, 
    {
      "op": "null", 
      "param": {}, 
      "name": "stage2_unit13_bn3_beta", 
      "inputs": [], 
      "backward_source_id": -1
    }, 
    {
      "op": "BatchNorm", 
      "param": {
        "eps": "2e-05", 
        "fix_gamma": "False", 
        "momentum": "0.9", 
        "use_global_stats": "False"
      }, 
      "name": "stage2_unit13_bn3", 
      "inputs": [[311, 0], [312, 0], [313, 0]], 
      "backward_source_id": -1, 
      "attr": {"force_mirroring": "True"}
    }, 
    {
      "op": "Activation", 
      "param": {"act_type": "relu"}, 
      "name": "stage2_unit13_relu3", 
      "inputs": [[314, 0]], 
      "backward_source_id": -1, 
      "attr": {"force_mirroring": "True"}
    }, 
    {
      "op": "null", 
      "param": {}, 
      "name": "stage2_unit13_conv3_weight", 
      "inputs": [], 
      "backward_source_id": -1
    }, 
    {
      "op": "Convolution", 
      "param": {
        "cudnn_tune": "limited_workspace", 
        "dilate": "(1,1)", 
        "kernel": "(1,1)", 
        "no_bias": "True", 
        "num_filter": "512", 
        "num_group": "1", 
        "pad": "(0,0)", 
        "stride": "(1,1)", 
        "workspace": "512"
      }, 
      "name": "stage2_unit13_conv3", 
      "inputs": [[315, 0], [316, 0]], 
      "backward_source_id": -1, 
      "attr": {"force_mirroring": "True"}
    }, 
    {
      "op": "_Plus", 
      "param": {}, 
      "name": "_plus15", 
      "inputs": [[317, 0], [299, 0]], 
      "backward_source_id": -1, 
      "attr": {
        "force_mirroring": "True", 
        "mirror_stage": "True"
      }
    }, 
    {
      "op": "null", 
      "param": {}, 
      "name": "stage2_unit14_bn1_gamma", 
      "inputs": [], 
      "backward_source_id": -1
    }, 
    {
      "op": "null", 
      "param": {}, 
      "name": "stage2_unit14_bn1_beta", 
      "inputs": [], 
      "backward_source_id": -1
    }, 
    {
      "op": "BatchNorm", 
      "param": {
        "eps": "2e-05", 
        "fix_gamma": "False", 
        "momentum": "0.9", 
        "use_global_stats": "False"
      }, 
      "name": "stage2_unit14_bn1", 
      "inputs": [[318, 0], [319, 0], [320, 0]], 
      "backward_source_id": -1, 
      "attr": {"force_mirroring": "True"}
    }, 
    {
      "op": "Activation", 
      "param": {"act_type": "relu"}, 
      "name": "stage2_unit14_relu1", 
      "inputs": [[321, 0]], 
      "backward_source_id": -1, 
      "attr": {"force_mirroring": "True"}
    }, 
    {
      "op": "null", 
      "param": {}, 
      "name": "stage2_unit14_conv1_weight", 
      "inputs": [], 
      "backward_source_id": -1
    }, 
    {
      "op": "Convolution", 
      "param": {
        "cudnn_tune": "limited_workspace", 
        "dilate": "(1,1)", 
        "kernel": "(1,1)", 
        "no_bias": "True", 
        "num_filter": "128", 
        "num_group": "1", 
        "pad": "(0,0)", 
        "stride": "(1,1)", 
        "workspace": "512"
      }, 
      "name": "stage2_unit14_conv1", 
      "inputs": [[322, 0], [323, 0]], 
      "backward_source_id": -1, 
      "attr": {"force_mirroring": "True"}
    }, 
    {
      "op": "null", 
      "param": {}, 
      "name": "stage2_unit14_bn2_gamma", 
      "inputs": [], 
      "backward_source_id": -1
    }, 
    {
      "op": "null", 
      "param": {}, 
      "name": "stage2_unit14_bn2_beta", 
      "inputs": [], 
      "backward_source_id": -1
    }, 
    {
      "op": "BatchNorm", 
      "param": {
        "eps": "2e-05", 
        "fix_gamma": "False", 
        "momentum": "0.9", 
        "use_global_stats": "False"
      }, 
      "name": "stage2_unit14_bn2", 
      "inputs": [[324, 0], [325, 0], [326, 0]], 
      "backward_source_id": -1, 
      "attr": {"force_mirroring": "True"}
    }, 
    {
      "op": "Activation", 
      "param": {"act_type": "relu"}, 
      "name": "stage2_unit14_relu2", 
      "inputs": [[327, 0]], 
      "backward_source_id": -1, 
      "attr": {"force_mirroring": "True"}
    }, 
    {
      "op": "null", 
      "param": {}, 
      "name": "stage2_unit14_conv2_weight", 
      "inputs": [], 
      "backward_source_id": -1
    }, 
    {
      "op": "Convolution", 
      "param": {
        "cudnn_tune": "limited_workspace", 
        "dilate": "(1,1)", 
        "kernel": "(3,3)", 
        "no_bias": "True", 
        "num_filter": "128", 
        "num_group": "1", 
        "pad": "(1,1)", 
        "stride": "(1,1)", 
        "workspace": "512"
      }, 
      "name": "stage2_unit14_conv2", 
      "inputs": [[328, 0], [329, 0]], 
      "backward_source_id": -1, 
      "attr": {"force_mirroring": "True"}
    }, 
    {
      "op": "null", 
      "param": {}, 
      "name": "stage2_unit14_bn3_gamma", 
      "inputs": [], 
      "backward_source_id": -1
    }, 
    {
      "op": "null", 
      "param": {}, 
      "name": "stage2_unit14_bn3_beta", 
      "inputs": [], 
      "backward_source_id": -1
    }, 
    {
      "op": "BatchNorm", 
      "param": {
        "eps": "2e-05", 
        "fix_gamma": "False", 
        "momentum": "0.9", 
        "use_global_stats": "False"
      }, 
      "name": "stage2_unit14_bn3", 
      "inputs": [[330, 0], [331, 0], [332, 0]], 
      "backward_source_id": -1, 
      "attr": {"force_mirroring": "True"}
    }, 
    {
      "op": "Activation", 
      "param": {"act_type": "relu"}, 
      "name": "stage2_unit14_relu3", 
      "inputs": [[333, 0]], 
      "backward_source_id": -1, 
      "attr": {"force_mirroring": "True"}
    }, 
    {
      "op": "null", 
      "param": {}, 
      "name": "stage2_unit14_conv3_weight", 
      "inputs": [], 
      "backward_source_id": -1
    }, 
    {
      "op": "Convolution", 
      "param": {
        "cudnn_tune": "limited_workspace", 
        "dilate": "(1,1)", 
        "kernel": "(1,1)", 
        "no_bias": "True", 
        "num_filter": "512", 
        "num_group": "1", 
        "pad": "(0,0)", 
        "stride": "(1,1)", 
        "workspace": "512"
      }, 
      "name": "stage2_unit14_conv3", 
      "inputs": [[334, 0], [335, 0]], 
      "backward_source_id": -1, 
      "attr": {"force_mirroring": "True"}
    }, 
    {
      "op": "_Plus", 
      "param": {}, 
      "name": "_plus16", 
      "inputs": [[336, 0], [318, 0]], 
      "backward_source_id": -1, 
      "attr": {
        "force_mirroring": "True", 
        "mirror_stage": "True"
      }
    }, 
    {
      "op": "null", 
      "param": {}, 
      "name": "stage2_unit15_bn1_gamma", 
      "inputs": [], 
      "backward_source_id": -1
    }, 
    {
      "op": "null", 
      "param": {}, 
      "name": "stage2_unit15_bn1_beta", 
      "inputs": [], 
      "backward_source_id": -1
    }, 
    {
      "op": "BatchNorm", 
      "param": {
        "eps": "2e-05", 
        "fix_gamma": "False", 
        "momentum": "0.9", 
        "use_global_stats": "False"
      }, 
      "name": "stage2_unit15_bn1", 
      "inputs": [[337, 0], [338, 0], [339, 0]], 
      "backward_source_id": -1, 
      "attr": {"force_mirroring": "True"}
    }, 
    {
      "op": "Activation", 
      "param": {"act_type": "relu"}, 
      "name": "stage2_unit15_relu1", 
      "inputs": [[340, 0]], 
      "backward_source_id": -1, 
      "attr": {"force_mirroring": "True"}
    }, 
    {
      "op": "null", 
      "param": {}, 
      "name": "stage2_unit15_conv1_weight", 
      "inputs": [], 
      "backward_source_id": -1
    }, 
    {
      "op": "Convolution", 
      "param": {
        "cudnn_tune": "limited_workspace", 
        "dilate": "(1,1)", 
        "kernel": "(1,1)", 
        "no_bias": "True", 
        "num_filter": "128", 
        "num_group": "1", 
        "pad": "(0,0)", 
        "stride": "(1,1)", 
        "workspace": "512"
      }, 
      "name": "stage2_unit15_conv1", 
      "inputs": [[341, 0], [342, 0]], 
      "backward_source_id": -1, 
      "attr": {"force_mirroring": "True"}
    }, 
    {
      "op": "null", 
      "param": {}, 
      "name": "stage2_unit15_bn2_gamma", 
      "inputs": [], 
      "backward_source_id": -1
    }, 
    {
      "op": "null", 
      "param": {}, 
      "name": "stage2_unit15_bn2_beta", 
      "inputs": [], 
      "backward_source_id": -1
    }, 
    {
      "op": "BatchNorm", 
      "param": {
        "eps": "2e-05", 
        "fix_gamma": "False", 
        "momentum": "0.9", 
        "use_global_stats": "False"
      }, 
      "name": "stage2_unit15_bn2", 
      "inputs": [[343, 0], [344, 0], [345, 0]], 
      "backward_source_id": -1, 
      "attr": {"force_mirroring": "True"}
    }, 
    {
      "op": "Activation", 
      "param": {"act_type": "relu"}, 
      "name": "stage2_unit15_relu2", 
      "inputs": [[346, 0]], 
      "backward_source_id": -1, 
      "attr": {"force_mirroring": "True"}
    }, 
    {
      "op": "null", 
      "param": {}, 
      "name": "stage2_unit15_conv2_weight", 
      "inputs": [], 
      "backward_source_id": -1
    }, 
    {
      "op": "Convolution", 
      "param": {
        "cudnn_tune": "limited_workspace", 
        "dilate": "(1,1)", 
        "kernel": "(3,3)", 
        "no_bias": "True", 
        "num_filter": "128", 
        "num_group": "1", 
        "pad": "(1,1)", 
        "stride": "(1,1)", 
        "workspace": "512"
      }, 
      "name": "stage2_unit15_conv2", 
      "inputs": [[347, 0], [348, 0]], 
      "backward_source_id": -1, 
      "attr": {"force_mirroring": "True"}
    }, 
    {
      "op": "null", 
      "param": {}, 
      "name": "stage2_unit15_bn3_gamma", 
      "inputs": [], 
      "backward_source_id": -1
    }, 
    {
      "op": "null", 
      "param": {}, 
      "name": "stage2_unit15_bn3_beta", 
      "inputs": [], 
      "backward_source_id": -1
    }, 
    {
      "op": "BatchNorm", 
      "param": {
        "eps": "2e-05", 
        "fix_gamma": "False", 
        "momentum": "0.9", 
        "use_global_stats": "False"
      }, 
      "name": "stage2_unit15_bn3", 
      "inputs": [[349, 0], [350, 0], [351, 0]], 
      "backward_source_id": -1, 
      "attr": {"force_mirroring": "True"}
    }, 
    {
      "op": "Activation", 
      "param": {"act_type": "relu"}, 
      "name": "stage2_unit15_relu3", 
      "inputs": [[352, 0]], 
      "backward_source_id": -1, 
      "attr": {"force_mirroring": "True"}
    }, 
    {
      "op": "null", 
      "param": {}, 
      "name": "stage2_unit15_conv3_weight", 
      "inputs": [], 
      "backward_source_id": -1
    }, 
    {
      "op": "Convolution", 
      "param": {
        "cudnn_tune": "limited_workspace", 
        "dilate": "(1,1)", 
        "kernel": "(1,1)", 
        "no_bias": "True", 
        "num_filter": "512", 
        "num_group": "1", 
        "pad": "(0,0)", 
        "stride": "(1,1)", 
        "workspace": "512"
      }, 
      "name": "stage2_unit15_conv3", 
      "inputs": [[353, 0], [354, 0]], 
      "backward_source_id": -1, 
      "attr": {"force_mirroring": "True"}
    }, 
    {
      "op": "_Plus", 
      "param": {}, 
      "name": "_plus17", 
      "inputs": [[355, 0], [337, 0]], 
      "backward_source_id": -1, 
      "attr": {
        "force_mirroring": "True", 
        "mirror_stage": "True"
      }
    }, 
    {
      "op": "null", 
      "param": {}, 
      "name": "stage2_unit16_bn1_gamma", 
      "inputs": [], 
      "backward_source_id": -1
    }, 
    {
      "op": "null", 
      "param": {}, 
      "name": "stage2_unit16_bn1_beta", 
      "inputs": [], 
      "backward_source_id": -1
    }, 
    {
      "op": "BatchNorm", 
      "param": {
        "eps": "2e-05", 
        "fix_gamma": "False", 
        "momentum": "0.9", 
        "use_global_stats": "False"
      }, 
      "name": "stage2_unit16_bn1", 
      "inputs": [[356, 0], [357, 0], [358, 0]], 
      "backward_source_id": -1, 
      "attr": {"force_mirroring": "True"}
    }, 
    {
      "op": "Activation", 
      "param": {"act_type": "relu"}, 
      "name": "stage2_unit16_relu1", 
      "inputs": [[359, 0]], 
      "backward_source_id": -1, 
      "attr": {"force_mirroring": "True"}
    }, 
    {
      "op": "null", 
      "param": {}, 
      "name": "stage2_unit16_conv1_weight", 
      "inputs": [], 
      "backward_source_id": -1
    }, 
    {
      "op": "Convolution", 
      "param": {
        "cudnn_tune": "limited_workspace", 
        "dilate": "(1,1)", 
        "kernel": "(1,1)", 
        "no_bias": "True", 
        "num_filter": "128", 
        "num_group": "1", 
        "pad": "(0,0)", 
        "stride": "(1,1)", 
        "workspace": "512"
      }, 
      "name": "stage2_unit16_conv1", 
      "inputs": [[360, 0], [361, 0]], 
      "backward_source_id": -1, 
      "attr": {"force_mirroring": "True"}
    }, 
    {
      "op": "null", 
      "param": {}, 
      "name": "stage2_unit16_bn2_gamma", 
      "inputs": [], 
      "backward_source_id": -1
    }, 
    {
      "op": "null", 
      "param": {}, 
      "name": "stage2_unit16_bn2_beta", 
      "inputs": [], 
      "backward_source_id": -1
    }, 
    {
      "op": "BatchNorm", 
      "param": {
        "eps": "2e-05", 
        "fix_gamma": "False", 
        "momentum": "0.9", 
        "use_global_stats": "False"
      }, 
      "name": "stage2_unit16_bn2", 
      "inputs": [[362, 0], [363, 0], [364, 0]], 
      "backward_source_id": -1, 
      "attr": {"force_mirroring": "True"}
    }, 
    {
      "op": "Activation", 
      "param": {"act_type": "relu"}, 
      "name": "stage2_unit16_relu2", 
      "inputs": [[365, 0]], 
      "backward_source_id": -1, 
      "attr": {"force_mirroring": "True"}
    }, 
    {
      "op": "null", 
      "param": {}, 
      "name": "stage2_unit16_conv2_weight", 
      "inputs": [], 
      "backward_source_id": -1
    }, 
    {
      "op": "Convolution", 
      "param": {
        "cudnn_tune": "limited_workspace", 
        "dilate": "(1,1)", 
        "kernel": "(3,3)", 
        "no_bias": "True", 
        "num_filter": "128", 
        "num_group": "1", 
        "pad": "(1,1)", 
        "stride": "(1,1)", 
        "workspace": "512"
      }, 
      "name": "stage2_unit16_conv2", 
      "inputs": [[366, 0], [367, 0]], 
      "backward_source_id": -1, 
      "attr": {"force_mirroring": "True"}
    }, 
    {
      "op": "null", 
      "param": {}, 
      "name": "stage2_unit16_bn3_gamma", 
      "inputs": [], 
      "backward_source_id": -1
    }, 
    {
      "op": "null", 
      "param": {}, 
      "name": "stage2_unit16_bn3_beta", 
      "inputs": [], 
      "backward_source_id": -1
    }, 
    {
      "op": "BatchNorm", 
      "param": {
        "eps": "2e-05", 
        "fix_gamma": "False", 
        "momentum": "0.9", 
        "use_global_stats": "False"
      }, 
      "name": "stage2_unit16_bn3", 
      "inputs": [[368, 0], [369, 0], [370, 0]], 
      "backward_source_id": -1, 
      "attr": {"force_mirroring": "True"}
    }, 
    {
      "op": "Activation", 
      "param": {"act_type": "relu"}, 
      "name": "stage2_unit16_relu3", 
      "inputs": [[371, 0]], 
      "backward_source_id": -1, 
      "attr": {"force_mirroring": "True"}
    }, 
    {
      "op": "null", 
      "param": {}, 
      "name": "stage2_unit16_conv3_weight", 
      "inputs": [], 
      "backward_source_id": -1
    }, 
    {
      "op": "Convolution", 
      "param": {
        "cudnn_tune": "limited_workspace", 
        "dilate": "(1,1)", 
        "kernel": "(1,1)", 
        "no_bias": "True", 
        "num_filter": "512", 
        "num_group": "1", 
        "pad": "(0,0)", 
        "stride": "(1,1)", 
        "workspace": "512"
      }, 
      "name": "stage2_unit16_conv3", 
      "inputs": [[372, 0], [373, 0]], 
      "backward_source_id": -1, 
      "attr": {"force_mirroring": "True"}
    }, 
    {
      "op": "_Plus", 
      "param": {}, 
      "name": "_plus18", 
      "inputs": [[374, 0], [356, 0]], 
      "backward_source_id": -1, 
      "attr": {
        "force_mirroring": "True", 
        "mirror_stage": "True"
      }
    }, 
    {
      "op": "null", 
      "param": {}, 
      "name": "stage2_unit17_bn1_gamma", 
      "inputs": [], 
      "backward_source_id": -1
    }, 
    {
      "op": "null", 
      "param": {}, 
      "name": "stage2_unit17_bn1_beta", 
      "inputs": [], 
      "backward_source_id": -1
    }, 
    {
      "op": "BatchNorm", 
      "param": {
        "eps": "2e-05", 
        "fix_gamma": "False", 
        "momentum": "0.9", 
        "use_global_stats": "False"
      }, 
      "name": "stage2_unit17_bn1", 
      "inputs": [[375, 0], [376, 0], [377, 0]], 
      "backward_source_id": -1, 
      "attr": {"force_mirroring": "True"}
    }, 
    {
      "op": "Activation", 
      "param": {"act_type": "relu"}, 
      "name": "stage2_unit17_relu1", 
      "inputs": [[378, 0]], 
      "backward_source_id": -1, 
      "attr": {"force_mirroring": "True"}
    }, 
    {
      "op": "null", 
      "param": {}, 
      "name": "stage2_unit17_conv1_weight", 
      "inputs": [], 
      "backward_source_id": -1
    }, 
    {
      "op": "Convolution", 
      "param": {
        "cudnn_tune": "limited_workspace", 
        "dilate": "(1,1)", 
        "kernel": "(1,1)", 
        "no_bias": "True", 
        "num_filter": "128", 
        "num_group": "1", 
        "pad": "(0,0)", 
        "stride": "(1,1)", 
        "workspace": "512"
      }, 
      "name": "stage2_unit17_conv1", 
      "inputs": [[379, 0], [380, 0]], 
      "backward_source_id": -1, 
      "attr": {"force_mirroring": "True"}
    }, 
    {
      "op": "null", 
      "param": {}, 
      "name": "stage2_unit17_bn2_gamma", 
      "inputs": [], 
      "backward_source_id": -1
    }, 
    {
      "op": "null", 
      "param": {}, 
      "name": "stage2_unit17_bn2_beta", 
      "inputs": [], 
      "backward_source_id": -1
    }, 
    {
      "op": "BatchNorm", 
      "param": {
        "eps": "2e-05", 
        "fix_gamma": "False", 
        "momentum": "0.9", 
        "use_global_stats": "False"
      }, 
      "name": "stage2_unit17_bn2", 
      "inputs": [[381, 0], [382, 0], [383, 0]], 
      "backward_source_id": -1, 
      "attr": {"force_mirroring": "True"}
    }, 
    {
      "op": "Activation", 
      "param": {"act_type": "relu"}, 
      "name": "stage2_unit17_relu2", 
      "inputs": [[384, 0]], 
      "backward_source_id": -1, 
      "attr": {"force_mirroring": "True"}
    }, 
    {
      "op": "null", 
      "param": {}, 
      "name": "stage2_unit17_conv2_weight", 
      "inputs": [], 
      "backward_source_id": -1
    }, 
    {
      "op": "Convolution", 
      "param": {
        "cudnn_tune": "limited_workspace", 
        "dilate": "(1,1)", 
        "kernel": "(3,3)", 
        "no_bias": "True", 
        "num_filter": "128", 
        "num_group": "1", 
        "pad": "(1,1)", 
        "stride": "(1,1)", 
        "workspace": "512"
      }, 
      "name": "stage2_unit17_conv2", 
      "inputs": [[385, 0], [386, 0]], 
      "backward_source_id": -1, 
      "attr": {"force_mirroring": "True"}
    }, 
    {
      "op": "null", 
      "param": {}, 
      "name": "stage2_unit17_bn3_gamma", 
      "inputs": [], 
      "backward_source_id": -1
    }, 
    {
      "op": "null", 
      "param": {}, 
      "name": "stage2_unit17_bn3_beta", 
      "inputs": [], 
      "backward_source_id": -1
    }, 
    {
      "op": "BatchNorm", 
      "param": {
        "eps": "2e-05", 
        "fix_gamma": "False", 
        "momentum": "0.9", 
        "use_global_stats": "False"
      }, 
      "name": "stage2_unit17_bn3", 
      "inputs": [[387, 0], [388, 0], [389, 0]], 
      "backward_source_id": -1, 
      "attr": {"force_mirroring": "True"}
    }, 
    {
      "op": "Activation", 
      "param": {"act_type": "relu"}, 
      "name": "stage2_unit17_relu3", 
      "inputs": [[390, 0]], 
      "backward_source_id": -1, 
      "attr": {"force_mirroring": "True"}
    }, 
    {
      "op": "null", 
      "param": {}, 
      "name": "stage2_unit17_conv3_weight", 
      "inputs": [], 
      "backward_source_id": -1
    }, 
    {
      "op": "Convolution", 
      "param": {
        "cudnn_tune": "limited_workspace", 
        "dilate": "(1,1)", 
        "kernel": "(1,1)", 
        "no_bias": "True", 
        "num_filter": "512", 
        "num_group": "1", 
        "pad": "(0,0)", 
        "stride": "(1,1)", 
        "workspace": "512"
      }, 
      "name": "stage2_unit17_conv3", 
      "inputs": [[391, 0], [392, 0]], 
      "backward_source_id": -1, 
      "attr": {"force_mirroring": "True"}
    }, 
    {
      "op": "_Plus", 
      "param": {}, 
      "name": "_plus19", 
      "inputs": [[393, 0], [375, 0]], 
      "backward_source_id": -1, 
      "attr": {
        "force_mirroring": "False", 
        "mirror_stage": "True"
      }
    }, 
    {
      "op": "null", 
      "param": {}, 
      "name": "stage2_unit18_bn1_gamma", 
      "inputs": [], 
      "backward_source_id": -1
    }, 
    {
      "op": "null", 
      "param": {}, 
      "name": "stage2_unit18_bn1_beta", 
      "inputs": [], 
      "backward_source_id": -1
    }, 
    {
      "op": "BatchNorm", 
      "param": {
        "eps": "2e-05", 
        "fix_gamma": "False", 
        "momentum": "0.9", 
        "use_global_stats": "False"
      }, 
      "name": "stage2_unit18_bn1", 
      "inputs": [[394, 0], [395, 0], [396, 0]], 
      "backward_source_id": -1, 
      "attr": {"force_mirroring": "True"}
    }, 
    {
      "op": "Activation", 
      "param": {"act_type": "relu"}, 
      "name": "stage2_unit18_relu1", 
      "inputs": [[397, 0]], 
      "backward_source_id": -1, 
      "attr": {"force_mirroring": "True"}
    }, 
    {
      "op": "null", 
      "param": {}, 
      "name": "stage2_unit18_conv1_weight", 
      "inputs": [], 
      "backward_source_id": -1
    }, 
    {
      "op": "Convolution", 
      "param": {
        "cudnn_tune": "limited_workspace", 
        "dilate": "(1,1)", 
        "kernel": "(1,1)", 
        "no_bias": "True", 
        "num_filter": "128", 
        "num_group": "1", 
        "pad": "(0,0)", 
        "stride": "(1,1)", 
        "workspace": "512"
      }, 
      "name": "stage2_unit18_conv1", 
      "inputs": [[398, 0], [399, 0]], 
      "backward_source_id": -1, 
      "attr": {"force_mirroring": "True"}
    }, 
    {
      "op": "null", 
      "param": {}, 
      "name": "stage2_unit18_bn2_gamma", 
      "inputs": [], 
      "backward_source_id": -1
    }, 
    {
      "op": "null", 
      "param": {}, 
      "name": "stage2_unit18_bn2_beta", 
      "inputs": [], 
      "backward_source_id": -1
    }, 
    {
      "op": "BatchNorm", 
      "param": {
        "eps": "2e-05", 
        "fix_gamma": "False", 
        "momentum": "0.9", 
        "use_global_stats": "False"
      }, 
      "name": "stage2_unit18_bn2", 
      "inputs": [[400, 0], [401, 0], [402, 0]], 
      "backward_source_id": -1, 
      "attr": {"force_mirroring": "True"}
    }, 
    {
      "op": "Activation", 
      "param": {"act_type": "relu"}, 
      "name": "stage2_unit18_relu2", 
      "inputs": [[403, 0]], 
      "backward_source_id": -1, 
      "attr": {"force_mirroring": "True"}
    }, 
    {
      "op": "null", 
      "param": {}, 
      "name": "stage2_unit18_conv2_weight", 
      "inputs": [], 
      "backward_source_id": -1
    }, 
    {
      "op": "Convolution", 
      "param": {
        "cudnn_tune": "limited_workspace", 
        "dilate": "(1,1)", 
        "kernel": "(3,3)", 
        "no_bias": "True", 
        "num_filter": "128", 
        "num_group": "1", 
        "pad": "(1,1)", 
        "stride": "(1,1)", 
        "workspace": "512"
      }, 
      "name": "stage2_unit18_conv2", 
      "inputs": [[404, 0], [405, 0]], 
      "backward_source_id": -1, 
      "attr": {"force_mirroring": "True"}
    }, 
    {
      "op": "null", 
      "param": {}, 
      "name": "stage2_unit18_bn3_gamma", 
      "inputs": [], 
      "backward_source_id": -1
    }, 
    {
      "op": "null", 
      "param": {}, 
      "name": "stage2_unit18_bn3_beta", 
      "inputs": [], 
      "backward_source_id": -1
    }, 
    {
      "op": "BatchNorm", 
      "param": {
        "eps": "2e-05", 
        "fix_gamma": "False", 
        "momentum": "0.9", 
        "use_global_stats": "False"
      }, 
      "name": "stage2_unit18_bn3", 
      "inputs": [[406, 0], [407, 0], [408, 0]], 
      "backward_source_id": -1, 
      "attr": {"force_mirroring": "True"}
    }, 
    {
      "op": "Activation", 
      "param": {"act_type": "relu"}, 
      "name": "stage2_unit18_relu3", 
      "inputs": [[409, 0]], 
      "backward_source_id": -1, 
      "attr": {"force_mirroring": "True"}
    }, 
    {
      "op": "null", 
      "param": {}, 
      "name": "stage2_unit18_conv3_weight", 
      "inputs": [], 
      "backward_source_id": -1
    }, 
    {
      "op": "Convolution", 
      "param": {
        "cudnn_tune": "limited_workspace", 
        "dilate": "(1,1)", 
        "kernel": "(1,1)", 
        "no_bias": "True", 
        "num_filter": "512", 
        "num_group": "1", 
        "pad": "(0,0)", 
        "stride": "(1,1)", 
        "workspace": "512"
      }, 
      "name": "stage2_unit18_conv3", 
      "inputs": [[410, 0], [411, 0]], 
      "backward_source_id": -1, 
      "attr": {"force_mirroring": "True"}
    }, 
    {
      "op": "_Plus", 
      "param": {}, 
      "name": "_plus20", 
      "inputs": [[412, 0], [394, 0]], 
      "backward_source_id": -1, 
      "attr": {
        "force_mirroring": "True", 
        "mirror_stage": "True"
      }
    }, 
    {
      "op": "null", 
      "param": {}, 
      "name": "stage2_unit19_bn1_gamma", 
      "inputs": [], 
      "backward_source_id": -1
    }, 
    {
      "op": "null", 
      "param": {}, 
      "name": "stage2_unit19_bn1_beta", 
      "inputs": [], 
      "backward_source_id": -1
    }, 
    {
      "op": "BatchNorm", 
      "param": {
        "eps": "2e-05", 
        "fix_gamma": "False", 
        "momentum": "0.9", 
        "use_global_stats": "False"
      }, 
      "name": "stage2_unit19_bn1", 
      "inputs": [[413, 0], [414, 0], [415, 0]], 
      "backward_source_id": -1, 
      "attr": {"force_mirroring": "True"}
    }, 
    {
      "op": "Activation", 
      "param": {"act_type": "relu"}, 
      "name": "stage2_unit19_relu1", 
      "inputs": [[416, 0]], 
      "backward_source_id": -1, 
      "attr": {"force_mirroring": "True"}
    }, 
    {
      "op": "null", 
      "param": {}, 
      "name": "stage2_unit19_conv1_weight", 
      "inputs": [], 
      "backward_source_id": -1
    }, 
    {
      "op": "Convolution", 
      "param": {
        "cudnn_tune": "limited_workspace", 
        "dilate": "(1,1)", 
        "kernel": "(1,1)", 
        "no_bias": "True", 
        "num_filter": "128", 
        "num_group": "1", 
        "pad": "(0,0)", 
        "stride": "(1,1)", 
        "workspace": "512"
      }, 
      "name": "stage2_unit19_conv1", 
      "inputs": [[417, 0], [418, 0]], 
      "backward_source_id": -1, 
      "attr": {"force_mirroring": "True"}
    }, 
    {
      "op": "null", 
      "param": {}, 
      "name": "stage2_unit19_bn2_gamma", 
      "inputs": [], 
      "backward_source_id": -1
    }, 
    {
      "op": "null", 
      "param": {}, 
      "name": "stage2_unit19_bn2_beta", 
      "inputs": [], 
      "backward_source_id": -1
    }, 
    {
      "op": "BatchNorm", 
      "param": {
        "eps": "2e-05", 
        "fix_gamma": "False", 
        "momentum": "0.9", 
        "use_global_stats": "False"
      }, 
      "name": "stage2_unit19_bn2", 
      "inputs": [[419, 0], [420, 0], [421, 0]], 
      "backward_source_id": -1, 
      "attr": {"force_mirroring": "True"}
    }, 
    {
      "op": "Activation", 
      "param": {"act_type": "relu"}, 
      "name": "stage2_unit19_relu2", 
      "inputs": [[422, 0]], 
      "backward_source_id": -1, 
      "attr": {"force_mirroring": "True"}
    }, 
    {
      "op": "null", 
      "param": {}, 
      "name": "stage2_unit19_conv2_weight", 
      "inputs": [], 
      "backward_source_id": -1
    }, 
    {
      "op": "Convolution", 
      "param": {
        "cudnn_tune": "limited_workspace", 
        "dilate": "(1,1)", 
        "kernel": "(3,3)", 
        "no_bias": "True", 
        "num_filter": "128", 
        "num_group": "1", 
        "pad": "(1,1)", 
        "stride": "(1,1)", 
        "workspace": "512"
      }, 
      "name": "stage2_unit19_conv2", 
      "inputs": [[423, 0], [424, 0]], 
      "backward_source_id": -1, 
      "attr": {"force_mirroring": "True"}
    }, 
    {
      "op": "null", 
      "param": {}, 
      "name": "stage2_unit19_bn3_gamma", 
      "inputs": [], 
      "backward_source_id": -1
    }, 
    {
      "op": "null", 
      "param": {}, 
      "name": "stage2_unit19_bn3_beta", 
      "inputs": [], 
      "backward_source_id": -1
    }, 
    {
      "op": "BatchNorm", 
      "param": {
        "eps": "2e-05", 
        "fix_gamma": "False", 
        "momentum": "0.9", 
        "use_global_stats": "False"
      }, 
      "name": "stage2_unit19_bn3", 
      "inputs": [[425, 0], [426, 0], [427, 0]], 
      "backward_source_id": -1, 
      "attr": {"force_mirroring": "True"}
    }, 
    {
      "op": "Activation", 
      "param": {"act_type": "relu"}, 
      "name": "stage2_unit19_relu3", 
      "inputs": [[428, 0]], 
      "backward_source_id": -1, 
      "attr": {"force_mirroring": "True"}
    }, 
    {
      "op": "null", 
      "param": {}, 
      "name": "stage2_unit19_conv3_weight", 
      "inputs": [], 
      "backward_source_id": -1
    }, 
    {
      "op": "Convolution", 
      "param": {
        "cudnn_tune": "limited_workspace", 
        "dilate": "(1,1)", 
        "kernel": "(1,1)", 
        "no_bias": "True", 
        "num_filter": "512", 
        "num_group": "1", 
        "pad": "(0,0)", 
        "stride": "(1,1)", 
        "workspace": "512"
      }, 
      "name": "stage2_unit19_conv3", 
      "inputs": [[429, 0], [430, 0]], 
      "backward_source_id": -1, 
      "attr": {"force_mirroring": "True"}
    }, 
    {
      "op": "_Plus", 
      "param": {}, 
      "name": "_plus21", 
      "inputs": [[431, 0], [413, 0]], 
      "backward_source_id": -1, 
      "attr": {
        "force_mirroring": "True", 
        "mirror_stage": "True"
      }
    }, 
    {
      "op": "null", 
      "param": {}, 
      "name": "stage2_unit20_bn1_gamma", 
      "inputs": [], 
      "backward_source_id": -1
    }, 
    {
      "op": "null", 
      "param": {}, 
      "name": "stage2_unit20_bn1_beta", 
      "inputs": [], 
      "backward_source_id": -1
    }, 
    {
      "op": "BatchNorm", 
      "param": {
        "eps": "2e-05", 
        "fix_gamma": "False", 
        "momentum": "0.9", 
        "use_global_stats": "False"
      }, 
      "name": "stage2_unit20_bn1", 
      "inputs": [[432, 0], [433, 0], [434, 0]], 
      "backward_source_id": -1, 
      "attr": {"force_mirroring": "True"}
    }, 
    {
      "op": "Activation", 
      "param": {"act_type": "relu"}, 
      "name": "stage2_unit20_relu1", 
      "inputs": [[435, 0]], 
      "backward_source_id": -1, 
      "attr": {"force_mirroring": "True"}
    }, 
    {
      "op": "null", 
      "param": {}, 
      "name": "stage2_unit20_conv1_weight", 
      "inputs": [], 
      "backward_source_id": -1
    }, 
    {
      "op": "Convolution", 
      "param": {
        "cudnn_tune": "limited_workspace", 
        "dilate": "(1,1)", 
        "kernel": "(1,1)", 
        "no_bias": "True", 
        "num_filter": "128", 
        "num_group": "1", 
        "pad": "(0,0)", 
        "stride": "(1,1)", 
        "workspace": "512"
      }, 
      "name": "stage2_unit20_conv1", 
      "inputs": [[436, 0], [437, 0]], 
      "backward_source_id": -1, 
      "attr": {"force_mirroring": "True"}
    }, 
    {
      "op": "null", 
      "param": {}, 
      "name": "stage2_unit20_bn2_gamma", 
      "inputs": [], 
      "backward_source_id": -1
    }, 
    {
      "op": "null", 
      "param": {}, 
      "name": "stage2_unit20_bn2_beta", 
      "inputs": [], 
      "backward_source_id": -1
    }, 
    {
      "op": "BatchNorm", 
      "param": {
        "eps": "2e-05", 
        "fix_gamma": "False", 
        "momentum": "0.9", 
        "use_global_stats": "False"
      }, 
      "name": "stage2_unit20_bn2", 
      "inputs": [[438, 0], [439, 0], [440, 0]], 
      "backward_source_id": -1, 
      "attr": {"force_mirroring": "True"}
    }, 
    {
      "op": "Activation", 
      "param": {"act_type": "relu"}, 
      "name": "stage2_unit20_relu2", 
      "inputs": [[441, 0]], 
      "backward_source_id": -1, 
      "attr": {"force_mirroring": "True"}
    }, 
    {
      "op": "null", 
      "param": {}, 
      "name": "stage2_unit20_conv2_weight", 
      "inputs": [], 
      "backward_source_id": -1
    }, 
    {
      "op": "Convolution", 
      "param": {
        "cudnn_tune": "limited_workspace", 
        "dilate": "(1,1)", 
        "kernel": "(3,3)", 
        "no_bias": "True", 
        "num_filter": "128", 
        "num_group": "1", 
        "pad": "(1,1)", 
        "stride": "(1,1)", 
        "workspace": "512"
      }, 
      "name": "stage2_unit20_conv2", 
      "inputs": [[442, 0], [443, 0]], 
      "backward_source_id": -1, 
      "attr": {"force_mirroring": "True"}
    }, 
    {
      "op": "null", 
      "param": {}, 
      "name": "stage2_unit20_bn3_gamma", 
      "inputs": [], 
      "backward_source_id": -1
    }, 
    {
      "op": "null", 
      "param": {}, 
      "name": "stage2_unit20_bn3_beta", 
      "inputs": [], 
      "backward_source_id": -1
    }, 
    {
      "op": "BatchNorm", 
      "param": {
        "eps": "2e-05", 
        "fix_gamma": "False", 
        "momentum": "0.9", 
        "use_global_stats": "False"
      }, 
      "name": "stage2_unit20_bn3", 
      "inputs": [[444, 0], [445, 0], [446, 0]], 
      "backward_source_id": -1, 
      "attr": {"force_mirroring": "True"}
    }, 
    {
      "op": "Activation", 
      "param": {"act_type": "relu"}, 
      "name": "stage2_unit20_relu3", 
      "inputs": [[447, 0]], 
      "backward_source_id": -1, 
      "attr": {"force_mirroring": "True"}
    }, 
    {
      "op": "null", 
      "param": {}, 
      "name": "stage2_unit20_conv3_weight", 
      "inputs": [], 
      "backward_source_id": -1
    }, 
    {
      "op": "Convolution", 
      "param": {
        "cudnn_tune": "limited_workspace", 
        "dilate": "(1,1)", 
        "kernel": "(1,1)", 
        "no_bias": "True", 
        "num_filter": "512", 
        "num_group": "1", 
        "pad": "(0,0)", 
        "stride": "(1,1)", 
        "workspace": "512"
      }, 
      "name": "stage2_unit20_conv3", 
      "inputs": [[448, 0], [449, 0]], 
      "backward_source_id": -1, 
      "attr": {"force_mirroring": "True"}
    }, 
    {
      "op": "_Plus", 
      "param": {}, 
      "name": "_plus22", 
      "inputs": [[450, 0], [432, 0]], 
      "backward_source_id": -1, 
      "attr": {
        "force_mirroring": "True", 
        "mirror_stage": "True"
      }
    }, 
    {
      "op": "null", 
      "param": {}, 
      "name": "stage2_unit21_bn1_gamma", 
      "inputs": [], 
      "backward_source_id": -1
    }, 
    {
      "op": "null", 
      "param": {}, 
      "name": "stage2_unit21_bn1_beta", 
      "inputs": [], 
      "backward_source_id": -1
    }, 
    {
      "op": "BatchNorm", 
      "param": {
        "eps": "2e-05", 
        "fix_gamma": "False", 
        "momentum": "0.9", 
        "use_global_stats": "False"
      }, 
      "name": "stage2_unit21_bn1", 
      "inputs": [[451, 0], [452, 0], [453, 0]], 
      "backward_source_id": -1, 
      "attr": {"force_mirroring": "True"}
    }, 
    {
      "op": "Activation", 
      "param": {"act_type": "relu"}, 
      "name": "stage2_unit21_relu1", 
      "inputs": [[454, 0]], 
      "backward_source_id": -1, 
      "attr": {"force_mirroring": "True"}
    }, 
    {
      "op": "null", 
      "param": {}, 
      "name": "stage2_unit21_conv1_weight", 
      "inputs": [], 
      "backward_source_id": -1
    }, 
    {
      "op": "Convolution", 
      "param": {
        "cudnn_tune": "limited_workspace", 
        "dilate": "(1,1)", 
        "kernel": "(1,1)", 
        "no_bias": "True", 
        "num_filter": "128", 
        "num_group": "1", 
        "pad": "(0,0)", 
        "stride": "(1,1)", 
        "workspace": "512"
      }, 
      "name": "stage2_unit21_conv1", 
      "inputs": [[455, 0], [456, 0]], 
      "backward_source_id": -1, 
      "attr": {"force_mirroring": "True"}
    }, 
    {
      "op": "null", 
      "param": {}, 
      "name": "stage2_unit21_bn2_gamma", 
      "inputs": [], 
      "backward_source_id": -1
    }, 
    {
      "op": "null", 
      "param": {}, 
      "name": "stage2_unit21_bn2_beta", 
      "inputs": [], 
      "backward_source_id": -1
    }, 
    {
      "op": "BatchNorm", 
      "param": {
        "eps": "2e-05", 
        "fix_gamma": "False", 
        "momentum": "0.9", 
        "use_global_stats": "False"
      }, 
      "name": "stage2_unit21_bn2", 
      "inputs": [[457, 0], [458, 0], [459, 0]], 
      "backward_source_id": -1, 
      "attr": {"force_mirroring": "True"}
    }, 
    {
      "op": "Activation", 
      "param": {"act_type": "relu"}, 
      "name": "stage2_unit21_relu2", 
      "inputs": [[460, 0]], 
      "backward_source_id": -1, 
      "attr": {"force_mirroring": "True"}
    }, 
    {
      "op": "null", 
      "param": {}, 
      "name": "stage2_unit21_conv2_weight", 
      "inputs": [], 
      "backward_source_id": -1
    }, 
    {
      "op": "Convolution", 
      "param": {
        "cudnn_tune": "limited_workspace", 
        "dilate": "(1,1)", 
        "kernel": "(3,3)", 
        "no_bias": "True", 
        "num_filter": "128", 
        "num_group": "1", 
        "pad": "(1,1)", 
        "stride": "(1,1)", 
        "workspace": "512"
      }, 
      "name": "stage2_unit21_conv2", 
      "inputs": [[461, 0], [462, 0]], 
      "backward_source_id": -1, 
      "attr": {"force_mirroring": "True"}
    }, 
    {
      "op": "null", 
      "param": {}, 
      "name": "stage2_unit21_bn3_gamma", 
      "inputs": [], 
      "backward_source_id": -1
    }, 
    {
      "op": "null", 
      "param": {}, 
      "name": "stage2_unit21_bn3_beta", 
      "inputs": [], 
      "backward_source_id": -1
    }, 
    {
      "op": "BatchNorm", 
      "param": {
        "eps": "2e-05", 
        "fix_gamma": "False", 
        "momentum": "0.9", 
        "use_global_stats": "False"
      }, 
      "name": "stage2_unit21_bn3", 
      "inputs": [[463, 0], [464, 0], [465, 0]], 
      "backward_source_id": -1, 
      "attr": {"force_mirroring": "True"}
    }, 
    {
      "op": "Activation", 
      "param": {"act_type": "relu"}, 
      "name": "stage2_unit21_relu3", 
      "inputs": [[466, 0]], 
      "backward_source_id": -1, 
      "attr": {"force_mirroring": "True"}
    }, 
    {
      "op": "null", 
      "param": {}, 
      "name": "stage2_unit21_conv3_weight", 
      "inputs": [], 
      "backward_source_id": -1
    }, 
    {
      "op": "Convolution", 
      "param": {
        "cudnn_tune": "limited_workspace", 
        "dilate": "(1,1)", 
        "kernel": "(1,1)", 
        "no_bias": "True", 
        "num_filter": "512", 
        "num_group": "1", 
        "pad": "(0,0)", 
        "stride": "(1,1)", 
        "workspace": "512"
      }, 
      "name": "stage2_unit21_conv3", 
      "inputs": [[467, 0], [468, 0]], 
      "backward_source_id": -1, 
      "attr": {"force_mirroring": "True"}
    }, 
    {
      "op": "_Plus", 
      "param": {}, 
      "name": "_plus23", 
      "inputs": [[469, 0], [451, 0]], 
      "backward_source_id": -1, 
      "attr": {
        "force_mirroring": "True", 
        "mirror_stage": "True"
      }
    }, 
    {
      "op": "null", 
      "param": {}, 
      "name": "stage2_unit22_bn1_gamma", 
      "inputs": [], 
      "backward_source_id": -1
    }, 
    {
      "op": "null", 
      "param": {}, 
      "name": "stage2_unit22_bn1_beta", 
      "inputs": [], 
      "backward_source_id": -1
    }, 
    {
      "op": "BatchNorm", 
      "param": {
        "eps": "2e-05", 
        "fix_gamma": "False", 
        "momentum": "0.9", 
        "use_global_stats": "False"
      }, 
      "name": "stage2_unit22_bn1", 
      "inputs": [[470, 0], [471, 0], [472, 0]], 
      "backward_source_id": -1, 
      "attr": {"force_mirroring": "True"}
    }, 
    {
      "op": "Activation", 
      "param": {"act_type": "relu"}, 
      "name": "stage2_unit22_relu1", 
      "inputs": [[473, 0]], 
      "backward_source_id": -1, 
      "attr": {"force_mirroring": "True"}
    }, 
    {
      "op": "null", 
      "param": {}, 
      "name": "stage2_unit22_conv1_weight", 
      "inputs": [], 
      "backward_source_id": -1
    }, 
    {
      "op": "Convolution", 
      "param": {
        "cudnn_tune": "limited_workspace", 
        "dilate": "(1,1)", 
        "kernel": "(1,1)", 
        "no_bias": "True", 
        "num_filter": "128", 
        "num_group": "1", 
        "pad": "(0,0)", 
        "stride": "(1,1)", 
        "workspace": "512"
      }, 
      "name": "stage2_unit22_conv1", 
      "inputs": [[474, 0], [475, 0]], 
      "backward_source_id": -1, 
      "attr": {"force_mirroring": "True"}
    }, 
    {
      "op": "null", 
      "param": {}, 
      "name": "stage2_unit22_bn2_gamma", 
      "inputs": [], 
      "backward_source_id": -1
    }, 
    {
      "op": "null", 
      "param": {}, 
      "name": "stage2_unit22_bn2_beta", 
      "inputs": [], 
      "backward_source_id": -1
    }, 
    {
      "op": "BatchNorm", 
      "param": {
        "eps": "2e-05", 
        "fix_gamma": "False", 
        "momentum": "0.9", 
        "use_global_stats": "False"
      }, 
      "name": "stage2_unit22_bn2", 
      "inputs": [[476, 0], [477, 0], [478, 0]], 
      "backward_source_id": -1, 
      "attr": {"force_mirroring": "True"}
    }, 
    {
      "op": "Activation", 
      "param": {"act_type": "relu"}, 
      "name": "stage2_unit22_relu2", 
      "inputs": [[479, 0]], 
      "backward_source_id": -1, 
      "attr": {"force_mirroring": "True"}
    }, 
    {
      "op": "null", 
      "param": {}, 
      "name": "stage2_unit22_conv2_weight", 
      "inputs": [], 
      "backward_source_id": -1
    }, 
    {
      "op": "Convolution", 
      "param": {
        "cudnn_tune": "limited_workspace", 
        "dilate": "(1,1)", 
        "kernel": "(3,3)", 
        "no_bias": "True", 
        "num_filter": "128", 
        "num_group": "1", 
        "pad": "(1,1)", 
        "stride": "(1,1)", 
        "workspace": "512"
      }, 
      "name": "stage2_unit22_conv2", 
      "inputs": [[480, 0], [481, 0]], 
      "backward_source_id": -1, 
      "attr": {"force_mirroring": "True"}
    }, 
    {
      "op": "null", 
      "param": {}, 
      "name": "stage2_unit22_bn3_gamma", 
      "inputs": [], 
      "backward_source_id": -1
    }, 
    {
      "op": "null", 
      "param": {}, 
      "name": "stage2_unit22_bn3_beta", 
      "inputs": [], 
      "backward_source_id": -1
    }, 
    {
      "op": "BatchNorm", 
      "param": {
        "eps": "2e-05", 
        "fix_gamma": "False", 
        "momentum": "0.9", 
        "use_global_stats": "False"
      }, 
      "name": "stage2_unit22_bn3", 
      "inputs": [[482, 0], [483, 0], [484, 0]], 
      "backward_source_id": -1, 
      "attr": {"force_mirroring": "True"}
    }, 
    {
      "op": "Activation", 
      "param": {"act_type": "relu"}, 
      "name": "stage2_unit22_relu3", 
      "inputs": [[485, 0]], 
      "backward_source_id": -1, 
      "attr": {"force_mirroring": "True"}
    }, 
    {
      "op": "null", 
      "param": {}, 
      "name": "stage2_unit22_conv3_weight", 
      "inputs": [], 
      "backward_source_id": -1
    }, 
    {
      "op": "Convolution", 
      "param": {
        "cudnn_tune": "limited_workspace", 
        "dilate": "(1,1)", 
        "kernel": "(1,1)", 
        "no_bias": "True", 
        "num_filter": "512", 
        "num_group": "1", 
        "pad": "(0,0)", 
        "stride": "(1,1)", 
        "workspace": "512"
      }, 
      "name": "stage2_unit22_conv3", 
      "inputs": [[486, 0], [487, 0]], 
      "backward_source_id": -1, 
      "attr": {"force_mirroring": "True"}
    }, 
    {
      "op": "_Plus", 
      "param": {}, 
      "name": "_plus24", 
      "inputs": [[488, 0], [470, 0]], 
      "backward_source_id": -1, 
      "attr": {
        "force_mirroring": "False", 
        "mirror_stage": "True"
      }
    }, 
    {
      "op": "null", 
      "param": {}, 
      "name": "stage2_unit23_bn1_gamma", 
      "inputs": [], 
      "backward_source_id": -1
    }, 
    {
      "op": "null", 
      "param": {}, 
      "name": "stage2_unit23_bn1_beta", 
      "inputs": [], 
      "backward_source_id": -1
    }, 
    {
      "op": "BatchNorm", 
      "param": {
        "eps": "2e-05", 
        "fix_gamma": "False", 
        "momentum": "0.9", 
        "use_global_stats": "False"
      }, 
      "name": "stage2_unit23_bn1", 
      "inputs": [[489, 0], [490, 0], [491, 0]], 
      "backward_source_id": -1, 
      "attr": {"force_mirroring": "True"}
    }, 
    {
      "op": "Activation", 
      "param": {"act_type": "relu"}, 
      "name": "stage2_unit23_relu1", 
      "inputs": [[492, 0]], 
      "backward_source_id": -1, 
      "attr": {"force_mirroring": "True"}
    }, 
    {
      "op": "null", 
      "param": {}, 
      "name": "stage2_unit23_conv1_weight", 
      "inputs": [], 
      "backward_source_id": -1
    }, 
    {
      "op": "Convolution", 
      "param": {
        "cudnn_tune": "limited_workspace", 
        "dilate": "(1,1)", 
        "kernel": "(1,1)", 
        "no_bias": "True", 
        "num_filter": "128", 
        "num_group": "1", 
        "pad": "(0,0)", 
        "stride": "(1,1)", 
        "workspace": "512"
      }, 
      "name": "stage2_unit23_conv1", 
      "inputs": [[493, 0], [494, 0]], 
      "backward_source_id": -1, 
      "attr": {"force_mirroring": "True"}
    }, 
    {
      "op": "null", 
      "param": {}, 
      "name": "stage2_unit23_bn2_gamma", 
      "inputs": [], 
      "backward_source_id": -1
    }, 
    {
      "op": "null", 
      "param": {}, 
      "name": "stage2_unit23_bn2_beta", 
      "inputs": [], 
      "backward_source_id": -1
    }, 
    {
      "op": "BatchNorm", 
      "param": {
        "eps": "2e-05", 
        "fix_gamma": "False", 
        "momentum": "0.9", 
        "use_global_stats": "False"
      }, 
      "name": "stage2_unit23_bn2", 
      "inputs": [[495, 0], [496, 0], [497, 0]], 
      "backward_source_id": -1, 
      "attr": {"force_mirroring": "True"}
    }, 
    {
      "op": "Activation", 
      "param": {"act_type": "relu"}, 
      "name": "stage2_unit23_relu2", 
      "inputs": [[498, 0]], 
      "backward_source_id": -1, 
      "attr": {"force_mirroring": "True"}
    }, 
    {
      "op": "null", 
      "param": {}, 
      "name": "stage2_unit23_conv2_weight", 
      "inputs": [], 
      "backward_source_id": -1
    }, 
    {
      "op": "Convolution", 
      "param": {
        "cudnn_tune": "limited_workspace", 
        "dilate": "(1,1)", 
        "kernel": "(3,3)", 
        "no_bias": "True", 
        "num_filter": "128", 
        "num_group": "1", 
        "pad": "(1,1)", 
        "stride": "(1,1)", 
        "workspace": "512"
      }, 
      "name": "stage2_unit23_conv2", 
      "inputs": [[499, 0], [500, 0]], 
      "backward_source_id": -1, 
      "attr": {"force_mirroring": "True"}
    }, 
    {
      "op": "null", 
      "param": {}, 
      "name": "stage2_unit23_bn3_gamma", 
      "inputs": [], 
      "backward_source_id": -1
    }, 
    {
      "op": "null", 
      "param": {}, 
      "name": "stage2_unit23_bn3_beta", 
      "inputs": [], 
      "backward_source_id": -1
    }, 
    {
      "op": "BatchNorm", 
      "param": {
        "eps": "2e-05", 
        "fix_gamma": "False", 
        "momentum": "0.9", 
        "use_global_stats": "False"
      }, 
      "name": "stage2_unit23_bn3", 
      "inputs": [[501, 0], [502, 0], [503, 0]], 
      "backward_source_id": -1, 
      "attr": {"force_mirroring": "True"}
    }, 
    {
      "op": "Activation", 
      "param": {"act_type": "relu"}, 
      "name": "stage2_unit23_relu3", 
      "inputs": [[504, 0]], 
      "backward_source_id": -1, 
      "attr": {"force_mirroring": "True"}
    }, 
    {
      "op": "null", 
      "param": {}, 
      "name": "stage2_unit23_conv3_weight", 
      "inputs": [], 
      "backward_source_id": -1
    }, 
    {
      "op": "Convolution", 
      "param": {
        "cudnn_tune": "limited_workspace", 
        "dilate": "(1,1)", 
        "kernel": "(1,1)", 
        "no_bias": "True", 
        "num_filter": "512", 
        "num_group": "1", 
        "pad": "(0,0)", 
        "stride": "(1,1)", 
        "workspace": "512"
      }, 
      "name": "stage2_unit23_conv3", 
      "inputs": [[505, 0], [506, 0]], 
      "backward_source_id": -1, 
      "attr": {"force_mirroring": "True"}
    }, 
    {
      "op": "_Plus", 
      "param": {}, 
      "name": "_plus25", 
      "inputs": [[507, 0], [489, 0]], 
      "backward_source_id": -1, 
      "attr": {
        "force_mirroring": "True", 
        "mirror_stage": "True"
      }
    }, 
    {
      "op": "null", 
      "param": {}, 
      "name": "stage2_unit24_bn1_gamma", 
      "inputs": [], 
      "backward_source_id": -1
    }, 
    {
      "op": "null", 
      "param": {}, 
      "name": "stage2_unit24_bn1_beta", 
      "inputs": [], 
      "backward_source_id": -1
    }, 
    {
      "op": "BatchNorm", 
      "param": {
        "eps": "2e-05", 
        "fix_gamma": "False", 
        "momentum": "0.9", 
        "use_global_stats": "False"
      }, 
      "name": "stage2_unit24_bn1", 
      "inputs": [[508, 0], [509, 0], [510, 0]], 
      "backward_source_id": -1, 
      "attr": {"force_mirroring": "True"}
    }, 
    {
      "op": "Activation", 
      "param": {"act_type": "relu"}, 
      "name": "stage2_unit24_relu1", 
      "inputs": [[511, 0]], 
      "backward_source_id": -1, 
      "attr": {"force_mirroring": "True"}
    }, 
    {
      "op": "null", 
      "param": {}, 
      "name": "stage2_unit24_conv1_weight", 
      "inputs": [], 
      "backward_source_id": -1
    }, 
    {
      "op": "Convolution", 
      "param": {
        "cudnn_tune": "limited_workspace", 
        "dilate": "(1,1)", 
        "kernel": "(1,1)", 
        "no_bias": "True", 
        "num_filter": "128", 
        "num_group": "1", 
        "pad": "(0,0)", 
        "stride": "(1,1)", 
        "workspace": "512"
      }, 
      "name": "stage2_unit24_conv1", 
      "inputs": [[512, 0], [513, 0]], 
      "backward_source_id": -1, 
      "attr": {"force_mirroring": "True"}
    }, 
    {
      "op": "null", 
      "param": {}, 
      "name": "stage2_unit24_bn2_gamma", 
      "inputs": [], 
      "backward_source_id": -1
    }, 
    {
      "op": "null", 
      "param": {}, 
      "name": "stage2_unit24_bn2_beta", 
      "inputs": [], 
      "backward_source_id": -1
    }, 
    {
      "op": "BatchNorm", 
      "param": {
        "eps": "2e-05", 
        "fix_gamma": "False", 
        "momentum": "0.9", 
        "use_global_stats": "False"
      }, 
      "name": "stage2_unit24_bn2", 
      "inputs": [[514, 0], [515, 0], [516, 0]], 
      "backward_source_id": -1, 
      "attr": {"force_mirroring": "True"}
    }, 
    {
      "op": "Activation", 
      "param": {"act_type": "relu"}, 
      "name": "stage2_unit24_relu2", 
      "inputs": [[517, 0]], 
      "backward_source_id": -1, 
      "attr": {"force_mirroring": "True"}
    }, 
    {
      "op": "null", 
      "param": {}, 
      "name": "stage2_unit24_conv2_weight", 
      "inputs": [], 
      "backward_source_id": -1
    }, 
    {
      "op": "Convolution", 
      "param": {
        "cudnn_tune": "limited_workspace", 
        "dilate": "(1,1)", 
        "kernel": "(3,3)", 
        "no_bias": "True", 
        "num_filter": "128", 
        "num_group": "1", 
        "pad": "(1,1)", 
        "stride": "(1,1)", 
        "workspace": "512"
      }, 
      "name": "stage2_unit24_conv2", 
      "inputs": [[518, 0], [519, 0]], 
      "backward_source_id": -1, 
      "attr": {"force_mirroring": "True"}
    }, 
    {
      "op": "null", 
      "param": {}, 
      "name": "stage2_unit24_bn3_gamma", 
      "inputs": [], 
      "backward_source_id": -1
    }, 
    {
      "op": "null", 
      "param": {}, 
      "name": "stage2_unit24_bn3_beta", 
      "inputs": [], 
      "backward_source_id": -1
    }, 
    {
      "op": "BatchNorm", 
      "param": {
        "eps": "2e-05", 
        "fix_gamma": "False", 
        "momentum": "0.9", 
        "use_global_stats": "False"
      }, 
      "name": "stage2_unit24_bn3", 
      "inputs": [[520, 0], [521, 0], [522, 0]], 
      "backward_source_id": -1, 
      "attr": {"force_mirroring": "True"}
    }, 
    {
      "op": "Activation", 
      "param": {"act_type": "relu"}, 
      "name": "stage2_unit24_relu3", 
      "inputs": [[523, 0]], 
      "backward_source_id": -1, 
      "attr": {"force_mirroring": "True"}
    }, 
    {
      "op": "null", 
      "param": {}, 
      "name": "stage2_unit24_conv3_weight", 
      "inputs": [], 
      "backward_source_id": -1
    }, 
    {
      "op": "Convolution", 
      "param": {
        "cudnn_tune": "limited_workspace", 
        "dilate": "(1,1)", 
        "kernel": "(1,1)", 
        "no_bias": "True", 
        "num_filter": "512", 
        "num_group": "1", 
        "pad": "(0,0)", 
        "stride": "(1,1)", 
        "workspace": "512"
      }, 
      "name": "stage2_unit24_conv3", 
      "inputs": [[524, 0], [525, 0]], 
      "backward_source_id": -1, 
      "attr": {"force_mirroring": "True"}
    }, 
    {
      "op": "_Plus", 
      "param": {}, 
      "name": "_plus26", 
      "inputs": [[526, 0], [508, 0]], 
      "backward_source_id": -1, 
      "attr": {"force_mirroring": "True"}
    }, 
    {
      "op": "null", 
      "param": {}, 
      "name": "stage3_unit1_bn1_gamma", 
      "inputs": [], 
      "backward_source_id": -1
    }, 
    {
      "op": "null", 
      "param": {}, 
      "name": "stage3_unit1_bn1_beta", 
      "inputs": [], 
      "backward_source_id": -1
    }, 
    {
      "op": "BatchNorm", 
      "param": {
        "eps": "2e-05", 
        "fix_gamma": "False", 
        "momentum": "0.9", 
        "use_global_stats": "False"
      }, 
      "name": "stage3_unit1_bn1", 
      "inputs": [[527, 0], [528, 0], [529, 0]], 
      "backward_source_id": -1, 
      "attr": {"force_mirroring": "True"}
    }, 
    {
      "op": "Activation", 
      "param": {"act_type": "relu"}, 
      "name": "stage3_unit1_relu1", 
      "inputs": [[530, 0]], 
      "backward_source_id": -1, 
      "attr": {"force_mirroring": "True"}
    }, 
    {
      "op": "null", 
      "param": {}, 
      "name": "stage3_unit1_conv1_weight", 
      "inputs": [], 
      "backward_source_id": -1
    }, 
    {
      "op": "Convolution", 
      "param": {
        "cudnn_tune": "limited_workspace", 
        "dilate": "(1,1)", 
        "kernel": "(1,1)", 
        "no_bias": "True", 
        "num_filter": "256", 
        "num_group": "1", 
        "pad": "(0,0)", 
        "stride": "(1,1)", 
        "workspace": "512"
      }, 
      "name": "stage3_unit1_conv1", 
      "inputs": [[531, 0], [532, 0]], 
      "backward_source_id": -1, 
      "attr": {"force_mirroring": "True"}
    }, 
    {
      "op": "null", 
      "param": {}, 
      "name": "stage3_unit1_bn2_gamma", 
      "inputs": [], 
      "backward_source_id": -1
    }, 
    {
      "op": "null", 
      "param": {}, 
      "name": "stage3_unit1_bn2_beta", 
      "inputs": [], 
      "backward_source_id": -1
    }, 
    {
      "op": "BatchNorm", 
      "param": {
        "eps": "2e-05", 
        "fix_gamma": "False", 
        "momentum": "0.9", 
        "use_global_stats": "False"
      }, 
      "name": "stage3_unit1_bn2", 
      "inputs": [[533, 0], [534, 0], [535, 0]], 
      "backward_source_id": -1, 
      "attr": {"force_mirroring": "True"}
    }, 
    {
      "op": "Activation", 
      "param": {"act_type": "relu"}, 
      "name": "stage3_unit1_relu2", 
      "inputs": [[536, 0]], 
      "backward_source_id": -1, 
      "attr": {"force_mirroring": "True"}
    }, 
    {
      "op": "null", 
      "param": {}, 
      "name": "stage3_unit1_conv2_weight", 
      "inputs": [], 
      "backward_source_id": -1
    }, 
    {
      "op": "Convolution", 
      "param": {
        "cudnn_tune": "limited_workspace", 
        "dilate": "(1,1)", 
        "kernel": "(3,3)", 
        "no_bias": "True", 
        "num_filter": "256", 
        "num_group": "1", 
        "pad": "(1,1)", 
        "stride": "(2,2)", 
        "workspace": "512"
      }, 
      "name": "stage3_unit1_conv2", 
      "inputs": [[537, 0], [538, 0]], 
      "backward_source_id": -1, 
      "attr": {"force_mirroring": "True"}
    }, 
    {
      "op": "null", 
      "param": {}, 
      "name": "stage3_unit1_bn3_gamma", 
      "inputs": [], 
      "backward_source_id": -1
    }, 
    {
      "op": "null", 
      "param": {}, 
      "name": "stage3_unit1_bn3_beta", 
      "inputs": [], 
      "backward_source_id": -1
    }, 
    {
      "op": "BatchNorm", 
      "param": {
        "eps": "2e-05", 
        "fix_gamma": "False", 
        "momentum": "0.9", 
        "use_global_stats": "False"
      }, 
      "name": "stage3_unit1_bn3", 
      "inputs": [[539, 0], [540, 0], [541, 0]], 
      "backward_source_id": -1, 
      "attr": {"force_mirroring": "True"}
    }, 
    {
      "op": "Activation", 
      "param": {"act_type": "relu"}, 
      "name": "stage3_unit1_relu3", 
      "inputs": [[542, 0]], 
      "backward_source_id": -1, 
      "attr": {"force_mirroring": "True"}
    }, 
    {
      "op": "null", 
      "param": {}, 
      "name": "stage3_unit1_conv3_weight", 
      "inputs": [], 
      "backward_source_id": -1
    }, 
    {
      "op": "Convolution", 
      "param": {
        "cudnn_tune": "limited_workspace", 
        "dilate": "(1,1)", 
        "kernel": "(1,1)", 
        "no_bias": "True", 
        "num_filter": "1024", 
        "num_group": "1", 
        "pad": "(0,0)", 
        "stride": "(1,1)", 
        "workspace": "512"
      }, 
      "name": "stage3_unit1_conv3", 
      "inputs": [[543, 0], [544, 0]], 
      "backward_source_id": -1, 
      "attr": {"force_mirroring": "True"}
    }, 
    {
      "op": "null", 
      "param": {}, 
      "name": "stage3_unit1_sc_weight", 
      "inputs": [], 
      "backward_source_id": -1
    }, 
    {
      "op": "Convolution", 
      "param": {
        "cudnn_tune": "limited_workspace", 
        "dilate": "(1,1)", 
        "kernel": "(1,1)", 
        "no_bias": "True", 
        "num_filter": "1024", 
        "num_group": "1", 
        "pad": "(0,0)", 
        "stride": "(2,2)", 
        "workspace": "512"
      }, 
      "name": "stage3_unit1_sc", 
      "inputs": [[531, 0], [546, 0]], 
      "backward_source_id": -1, 
      "attr": {
        "force_mirroring": "True", 
        "mirror_stage": "True"
      }
    }, 
    {
      "op": "_Plus", 
      "param": {}, 
      "name": "_plus27", 
      "inputs": [[545, 0], [547, 0]], 
      "backward_source_id": -1, 
      "attr": {
        "force_mirroring": "True", 
        "mirror_stage": "True"
      }
    }, 
    {
      "op": "null", 
      "param": {}, 
      "name": "stage3_unit2_bn1_gamma", 
      "inputs": [], 
      "backward_source_id": -1
    }, 
    {
      "op": "null", 
      "param": {}, 
      "name": "stage3_unit2_bn1_beta", 
      "inputs": [], 
      "backward_source_id": -1
    }, 
    {
      "op": "BatchNorm", 
      "param": {
        "eps": "2e-05", 
        "fix_gamma": "False", 
        "momentum": "0.9", 
        "use_global_stats": "False"
      }, 
      "name": "stage3_unit2_bn1", 
      "inputs": [[548, 0], [549, 0], [550, 0]], 
      "backward_source_id": -1, 
      "attr": {"force_mirroring": "True"}
    }, 
    {
      "op": "Activation", 
      "param": {"act_type": "relu"}, 
      "name": "stage3_unit2_relu1", 
      "inputs": [[551, 0]], 
      "backward_source_id": -1, 
      "attr": {"force_mirroring": "True"}
    }, 
    {
      "op": "null", 
      "param": {}, 
      "name": "stage3_unit2_conv1_weight", 
      "inputs": [], 
      "backward_source_id": -1
    }, 
    {
      "op": "Convolution", 
      "param": {
        "cudnn_tune": "limited_workspace", 
        "dilate": "(1,1)", 
        "kernel": "(1,1)", 
        "no_bias": "True", 
        "num_filter": "256", 
        "num_group": "1", 
        "pad": "(0,0)", 
        "stride": "(1,1)", 
        "workspace": "512"
      }, 
      "name": "stage3_unit2_conv1", 
      "inputs": [[552, 0], [553, 0]], 
      "backward_source_id": -1, 
      "attr": {"force_mirroring": "True"}
    }, 
    {
      "op": "null", 
      "param": {}, 
      "name": "stage3_unit2_bn2_gamma", 
      "inputs": [], 
      "backward_source_id": -1
    }, 
    {
      "op": "null", 
      "param": {}, 
      "name": "stage3_unit2_bn2_beta", 
      "inputs": [], 
      "backward_source_id": -1
    }, 
    {
      "op": "BatchNorm", 
      "param": {
        "eps": "2e-05", 
        "fix_gamma": "False", 
        "momentum": "0.9", 
        "use_global_stats": "False"
      }, 
      "name": "stage3_unit2_bn2", 
      "inputs": [[554, 0], [555, 0], [556, 0]], 
      "backward_source_id": -1, 
      "attr": {"force_mirroring": "True"}
    }, 
    {
      "op": "Activation", 
      "param": {"act_type": "relu"}, 
      "name": "stage3_unit2_relu2", 
      "inputs": [[557, 0]], 
      "backward_source_id": -1, 
      "attr": {"force_mirroring": "True"}
    }, 
    {
      "op": "null", 
      "param": {}, 
      "name": "stage3_unit2_conv2_weight", 
      "inputs": [], 
      "backward_source_id": -1
    }, 
    {
      "op": "Convolution", 
      "param": {
        "cudnn_tune": "limited_workspace", 
        "dilate": "(1,1)", 
        "kernel": "(3,3)", 
        "no_bias": "True", 
        "num_filter": "256", 
        "num_group": "1", 
        "pad": "(1,1)", 
        "stride": "(1,1)", 
        "workspace": "512"
      }, 
      "name": "stage3_unit2_conv2", 
      "inputs": [[558, 0], [559, 0]], 
      "backward_source_id": -1, 
      "attr": {"force_mirroring": "True"}
    }, 
    {
      "op": "null", 
      "param": {}, 
      "name": "stage3_unit2_bn3_gamma", 
      "inputs": [], 
      "backward_source_id": -1
    }, 
    {
      "op": "null", 
      "param": {}, 
      "name": "stage3_unit2_bn3_beta", 
      "inputs": [], 
      "backward_source_id": -1
    }, 
    {
      "op": "BatchNorm", 
      "param": {
        "eps": "2e-05", 
        "fix_gamma": "False", 
        "momentum": "0.9", 
        "use_global_stats": "False"
      }, 
      "name": "stage3_unit2_bn3", 
      "inputs": [[560, 0], [561, 0], [562, 0]], 
      "backward_source_id": -1, 
      "attr": {"force_mirroring": "True"}
    }, 
    {
      "op": "Activation", 
      "param": {"act_type": "relu"}, 
      "name": "stage3_unit2_relu3", 
      "inputs": [[563, 0]], 
      "backward_source_id": -1, 
      "attr": {"force_mirroring": "True"}
    }, 
    {
      "op": "null", 
      "param": {}, 
      "name": "stage3_unit2_conv3_weight", 
      "inputs": [], 
      "backward_source_id": -1
    }, 
    {
      "op": "Convolution", 
      "param": {
        "cudnn_tune": "limited_workspace", 
        "dilate": "(1,1)", 
        "kernel": "(1,1)", 
        "no_bias": "True", 
        "num_filter": "1024", 
        "num_group": "1", 
        "pad": "(0,0)", 
        "stride": "(1,1)", 
        "workspace": "512"
      }, 
      "name": "stage3_unit2_conv3", 
      "inputs": [[564, 0], [565, 0]], 
      "backward_source_id": -1, 
      "attr": {"force_mirroring": "True"}
    }, 
    {
      "op": "_Plus", 
      "param": {}, 
      "name": "_plus28", 
      "inputs": [[566, 0], [548, 0]], 
      "backward_source_id": -1, 
      "attr": {
        "force_mirroring": "True", 
        "mirror_stage": "True"
      }
    }, 
    {
      "op": "null", 
      "param": {}, 
      "name": "stage3_unit3_bn1_gamma", 
      "inputs": [], 
      "backward_source_id": -1
    }, 
    {
      "op": "null", 
      "param": {}, 
      "name": "stage3_unit3_bn1_beta", 
      "inputs": [], 
      "backward_source_id": -1
    }, 
    {
      "op": "BatchNorm", 
      "param": {
        "eps": "2e-05", 
        "fix_gamma": "False", 
        "momentum": "0.9", 
        "use_global_stats": "False"
      }, 
      "name": "stage3_unit3_bn1", 
      "inputs": [[567, 0], [568, 0], [569, 0]], 
      "backward_source_id": -1, 
      "attr": {"force_mirroring": "True"}
    }, 
    {
      "op": "Activation", 
      "param": {"act_type": "relu"}, 
      "name": "stage3_unit3_relu1", 
      "inputs": [[570, 0]], 
      "backward_source_id": -1, 
      "attr": {"force_mirroring": "True"}
    }, 
    {
      "op": "null", 
      "param": {}, 
      "name": "stage3_unit3_conv1_weight", 
      "inputs": [], 
      "backward_source_id": -1
    }, 
    {
      "op": "Convolution", 
      "param": {
        "cudnn_tune": "limited_workspace", 
        "dilate": "(1,1)", 
        "kernel": "(1,1)", 
        "no_bias": "True", 
        "num_filter": "256", 
        "num_group": "1", 
        "pad": "(0,0)", 
        "stride": "(1,1)", 
        "workspace": "512"
      }, 
      "name": "stage3_unit3_conv1", 
      "inputs": [[571, 0], [572, 0]], 
      "backward_source_id": -1, 
      "attr": {"force_mirroring": "True"}
    }, 
    {
      "op": "null", 
      "param": {}, 
      "name": "stage3_unit3_bn2_gamma", 
      "inputs": [], 
      "backward_source_id": -1
    }, 
    {
      "op": "null", 
      "param": {}, 
      "name": "stage3_unit3_bn2_beta", 
      "inputs": [], 
      "backward_source_id": -1
    }, 
    {
      "op": "BatchNorm", 
      "param": {
        "eps": "2e-05", 
        "fix_gamma": "False", 
        "momentum": "0.9", 
        "use_global_stats": "False"
      }, 
      "name": "stage3_unit3_bn2", 
      "inputs": [[573, 0], [574, 0], [575, 0]], 
      "backward_source_id": -1, 
      "attr": {"force_mirroring": "True"}
    }, 
    {
      "op": "Activation", 
      "param": {"act_type": "relu"}, 
      "name": "stage3_unit3_relu2", 
      "inputs": [[576, 0]], 
      "backward_source_id": -1, 
      "attr": {"force_mirroring": "True"}
    }, 
    {
      "op": "null", 
      "param": {}, 
      "name": "stage3_unit3_conv2_weight", 
      "inputs": [], 
      "backward_source_id": -1
    }, 
    {
      "op": "Convolution", 
      "param": {
        "cudnn_tune": "limited_workspace", 
        "dilate": "(1,1)", 
        "kernel": "(3,3)", 
        "no_bias": "True", 
        "num_filter": "256", 
        "num_group": "1", 
        "pad": "(1,1)", 
        "stride": "(1,1)", 
        "workspace": "512"
      }, 
      "name": "stage3_unit3_conv2", 
      "inputs": [[577, 0], [578, 0]], 
      "backward_source_id": -1, 
      "attr": {"force_mirroring": "True"}
    }, 
    {
      "op": "null", 
      "param": {}, 
      "name": "stage3_unit3_bn3_gamma", 
      "inputs": [], 
      "backward_source_id": -1
    }, 
    {
      "op": "null", 
      "param": {}, 
      "name": "stage3_unit3_bn3_beta", 
      "inputs": [], 
      "backward_source_id": -1
    }, 
    {
      "op": "BatchNorm", 
      "param": {
        "eps": "2e-05", 
        "fix_gamma": "False", 
        "momentum": "0.9", 
        "use_global_stats": "False"
      }, 
      "name": "stage3_unit3_bn3", 
      "inputs": [[579, 0], [580, 0], [581, 0]], 
      "backward_source_id": -1, 
      "attr": {"force_mirroring": "True"}
    }, 
    {
      "op": "Activation", 
      "param": {"act_type": "relu"}, 
      "name": "stage3_unit3_relu3", 
      "inputs": [[582, 0]], 
      "backward_source_id": -1, 
      "attr": {"force_mirroring": "True"}
    }, 
    {
      "op": "null", 
      "param": {}, 
      "name": "stage3_unit3_conv3_weight", 
      "inputs": [], 
      "backward_source_id": -1
    }, 
    {
      "op": "Convolution", 
      "param": {
        "cudnn_tune": "limited_workspace", 
        "dilate": "(1,1)", 
        "kernel": "(1,1)", 
        "no_bias": "True", 
        "num_filter": "1024", 
        "num_group": "1", 
        "pad": "(0,0)", 
        "stride": "(1,1)", 
        "workspace": "512"
      }, 
      "name": "stage3_unit3_conv3", 
      "inputs": [[583, 0], [584, 0]], 
      "backward_source_id": -1, 
      "attr": {"force_mirroring": "True"}
    }, 
    {
      "op": "_Plus", 
      "param": {}, 
      "name": "_plus29", 
      "inputs": [[585, 0], [567, 0]], 
      "backward_source_id": -1, 
      "attr": {
        "force_mirroring": "True", 
        "mirror_stage": "True"
      }
    }, 
    {
      "op": "null", 
      "param": {}, 
      "name": "stage3_unit4_bn1_gamma", 
      "inputs": [], 
      "backward_source_id": -1
    }, 
    {
      "op": "null", 
      "param": {}, 
      "name": "stage3_unit4_bn1_beta", 
      "inputs": [], 
      "backward_source_id": -1
    }, 
    {
      "op": "BatchNorm", 
      "param": {
        "eps": "2e-05", 
        "fix_gamma": "False", 
        "momentum": "0.9", 
        "use_global_stats": "False"
      }, 
      "name": "stage3_unit4_bn1", 
      "inputs": [[586, 0], [587, 0], [588, 0]], 
      "backward_source_id": -1, 
      "attr": {"force_mirroring": "True"}
    }, 
    {
      "op": "Activation", 
      "param": {"act_type": "relu"}, 
      "name": "stage3_unit4_relu1", 
      "inputs": [[589, 0]], 
      "backward_source_id": -1, 
      "attr": {"force_mirroring": "True"}
    }, 
    {
      "op": "null", 
      "param": {}, 
      "name": "stage3_unit4_conv1_weight", 
      "inputs": [], 
      "backward_source_id": -1
    }, 
    {
      "op": "Convolution", 
      "param": {
        "cudnn_tune": "limited_workspace", 
        "dilate": "(1,1)", 
        "kernel": "(1,1)", 
        "no_bias": "True", 
        "num_filter": "256", 
        "num_group": "1", 
        "pad": "(0,0)", 
        "stride": "(1,1)", 
        "workspace": "512"
      }, 
      "name": "stage3_unit4_conv1", 
      "inputs": [[590, 0], [591, 0]], 
      "backward_source_id": -1, 
      "attr": {"force_mirroring": "True"}
    }, 
    {
      "op": "null", 
      "param": {}, 
      "name": "stage3_unit4_bn2_gamma", 
      "inputs": [], 
      "backward_source_id": -1
    }, 
    {
      "op": "null", 
      "param": {}, 
      "name": "stage3_unit4_bn2_beta", 
      "inputs": [], 
      "backward_source_id": -1
    }, 
    {
      "op": "BatchNorm", 
      "param": {
        "eps": "2e-05", 
        "fix_gamma": "False", 
        "momentum": "0.9", 
        "use_global_stats": "False"
      }, 
      "name": "stage3_unit4_bn2", 
      "inputs": [[592, 0], [593, 0], [594, 0]], 
      "backward_source_id": -1, 
      "attr": {"force_mirroring": "True"}
    }, 
    {
      "op": "Activation", 
      "param": {"act_type": "relu"}, 
      "name": "stage3_unit4_relu2", 
      "inputs": [[595, 0]], 
      "backward_source_id": -1, 
      "attr": {"force_mirroring": "True"}
    }, 
    {
      "op": "null", 
      "param": {}, 
      "name": "stage3_unit4_conv2_weight", 
      "inputs": [], 
      "backward_source_id": -1
    }, 
    {
      "op": "Convolution", 
      "param": {
        "cudnn_tune": "limited_workspace", 
        "dilate": "(1,1)", 
        "kernel": "(3,3)", 
        "no_bias": "True", 
        "num_filter": "256", 
        "num_group": "1", 
        "pad": "(1,1)", 
        "stride": "(1,1)", 
        "workspace": "512"
      }, 
      "name": "stage3_unit4_conv2", 
      "inputs": [[596, 0], [597, 0]], 
      "backward_source_id": -1, 
      "attr": {"force_mirroring": "True"}
    }, 
    {
      "op": "null", 
      "param": {}, 
      "name": "stage3_unit4_bn3_gamma", 
      "inputs": [], 
      "backward_source_id": -1
    }, 
    {
      "op": "null", 
      "param": {}, 
      "name": "stage3_unit4_bn3_beta", 
      "inputs": [], 
…
      "op": "Activation", 
      "param": {"act_type": "relu"}, 
      "name": "stage3_unit31_relu2", 
      "inputs": [[1108, 0]], 
      "backward_source_id": -1, 
      "attr": {"force_mirroring": "True"}
    }, 
    {
      "op": "null", 
      "param": {}, 
      "name": "stage3_unit31_conv2_weight", 
      "inputs": [], 
      "backward_source_id": -1
    }, 
    {
      "op": "Convolution", 
      "param": {
        "cudnn_tune": "limited_workspace", 
        "dilate": "(1,1)", 
        "kernel": "(3,3)", 
        "no_bias": "True", 
        "num_filter": "256", 
        "num_group": "1", 
        "pad": "(1,1)", 
        "stride": "(1,1)", 
        "workspace": "512"
      }, 
      "name": "stage3_unit31_conv2", 
      "inputs": [[1109, 0], [1110, 0]], 
      "backward_source_id": -1, 
      "attr": {"force_mirroring": "True"}
    }, 
    {
      "op": "null", 
      "param": {}, 
      "name": "stage3_unit31_bn3_gamma", 
      "inputs": [], 
      "backward_source_id": -1
    }, 
    {
      "op": "null", 
      "param": {}, 
      "name": "stage3_unit31_bn3_beta", 
      "inputs": [], 
      "backward_source_id": -1
    }, 
    {
      "op": "BatchNorm", 
      "param": {
        "eps": "2e-05", 
        "fix_gamma": "False", 
        "momentum": "0.9", 
        "use_global_stats": "False"
      }, 
      "name": "stage3_unit31_bn3", 
      "inputs": [[1111, 0], [1112, 0], [1113, 0]], 
      "backward_source_id": -1, 
      "attr": {"force_mirroring": "True"}
    }, 
    {
      "op": "Activation", 
      "param": {"act_type": "relu"}, 
      "name": "stage3_unit31_relu3", 
      "inputs": [[1114, 0]], 
      "backward_source_id": -1, 
      "attr": {"force_mirroring": "True"}
    }, 
    {
      "op": "null", 
      "param": {}, 
      "name": "stage3_unit31_conv3_weight", 
      "inputs": [], 
      "backward_source_id": -1
    }, 
    {
      "op": "Convolution", 
      "param": {
        "cudnn_tune": "limited_workspace", 
        "dilate": "(1,1)", 
        "kernel": "(1,1)", 
        "no_bias": "True", 
        "num_filter": "1024", 
        "num_group": "1", 
        "pad": "(0,0)", 
        "stride": "(1,1)", 
        "workspace": "512"
      }, 
      "name": "stage3_unit31_conv3", 
      "inputs": [[1115, 0], [1116, 0]], 
      "backward_source_id": -1, 
      "attr": {"force_mirroring": "True"}
    }, 
    {
      "op": "_Plus", 
      "param": {}, 
      "name": "_plus57", 
      "inputs": [[1117, 0], [1099, 0]], 
      "backward_source_id": -1, 
      "attr": {
        "force_mirroring": "False", 
        "mirror_stage": "True"
      }
    }, 
    {
      "op": "null", 
      "param": {}, 
      "name": "stage3_unit32_bn1_gamma", 
      "inputs": [], 
      "backward_source_id": -1
    }, 
    {
      "op": "null", 
      "param": {}, 
      "name": "stage3_unit32_bn1_beta", 
      "inputs": [], 
      "backward_source_id": -1
    }, 
    {
      "op": "BatchNorm", 
      "param": {
        "eps": "2e-05", 
        "fix_gamma": "False", 
        "momentum": "0.9", 
        "use_global_stats": "False"
      }, 
      "name": "stage3_unit32_bn1", 
      "inputs": [[1118, 0], [1119, 0], [1120, 0]], 
      "backward_source_id": -1, 
      "attr": {"force_mirroring": "True"}
    }, 
    {
      "op": "Activation", 
      "param": {"act_type": "relu"}, 
      "name": "stage3_unit32_relu1", 
      "inputs": [[1121, 0]], 
      "backward_source_id": -1, 
      "attr": {"force_mirroring": "True"}
    }, 
    {
      "op": "null", 
      "param": {}, 
      "name": "stage3_unit32_conv1_weight", 
      "inputs": [], 
      "backward_source_id": -1
    }, 
    {
      "op": "Convolution", 
      "param": {
        "cudnn_tune": "limited_workspace", 
        "dilate": "(1,1)", 
        "kernel": "(1,1)", 
        "no_bias": "True", 
        "num_filter": "256", 
        "num_group": "1", 
        "pad": "(0,0)", 
        "stride": "(1,1)", 
        "workspace": "512"
      }, 
      "name": "stage3_unit32_conv1", 
      "inputs": [[1122, 0], [1123, 0]], 
      "backward_source_id": -1, 
      "attr": {"force_mirroring": "True"}
    }, 
    {
      "op": "null", 
      "param": {}, 
      "name": "stage3_unit32_bn2_gamma", 
      "inputs": [], 
      "backward_source_id": -1
    }, 
    {
      "op": "null", 
      "param": {}, 
      "name": "stage3_unit32_bn2_beta", 
      "inputs": [], 
      "backward_source_id": -1
    }, 
    {
      "op": "BatchNorm", 
      "param": {
        "eps": "2e-05", 
        "fix_gamma": "False", 
        "momentum": "0.9", 
        "use_global_stats": "False"
      }, 
      "name": "stage3_unit32_bn2", 
      "inputs": [[1124, 0], [1125, 0], [1126, 0]], 
      "backward_source_id": -1, 
      "attr": {"force_mirroring": "True"}
    }, 
    {
      "op": "Activation", 
      "param": {"act_type": "relu"}, 
      "name": "stage3_unit32_relu2", 
      "inputs": [[1127, 0]], 
      "backward_source_id": -1, 
      "attr": {"force_mirroring": "True"}
    }, 
    {
      "op": "null", 
      "param": {}, 
      "name": "stage3_unit32_conv2_weight", 
      "inputs": [], 
      "backward_source_id": -1
    }, 
    {
      "op": "Convolution", 
      "param": {
        "cudnn_tune": "limited_workspace", 
        "dilate": "(1,1)", 
        "kernel": "(3,3)", 
        "no_bias": "True", 
        "num_filter": "256", 
        "num_group": "1", 
        "pad": "(1,1)", 
        "stride": "(1,1)", 
        "workspace": "512"
      }, 
      "name": "stage3_unit32_conv2", 
      "inputs": [[1128, 0], [1129, 0]], 
      "backward_source_id": -1, 
      "attr": {"force_mirroring": "True"}
    }, 
    {
      "op": "null", 
      "param": {}, 
      "name": "stage3_unit32_bn3_gamma", 
      "inputs": [], 
      "backward_source_id": -1
    }, 
    {
      "op": "null", 
      "param": {}, 
      "name": "stage3_unit32_bn3_beta", 
      "inputs": [], 
      "backward_source_id": -1
    }, 
    {
      "op": "BatchNorm", 
      "param": {
        "eps": "2e-05", 
        "fix_gamma": "False", 
        "momentum": "0.9", 
        "use_global_stats": "False"
      }, 
      "name": "stage3_unit32_bn3", 
      "inputs": [[1130, 0], [1131, 0], [1132, 0]], 
      "backward_source_id": -1, 
      "attr": {"force_mirroring": "True"}
    }, 
    {
      "op": "Activation", 
      "param": {"act_type": "relu"}, 
      "name": "stage3_unit32_relu3", 
      "inputs": [[1133, 0]], 
      "backward_source_id": -1, 
      "attr": {"force_mirroring": "True"}
    }, 
    {
      "op": "null", 
      "param": {}, 
      "name": "stage3_unit32_conv3_weight", 
      "inputs": [], 
      "backward_source_id": -1
    }, 
    {
      "op": "Convolution", 
      "param": {
        "cudnn_tune": "limited_workspace", 
        "dilate": "(1,1)", 
        "kernel": "(1,1)", 
        "no_bias": "True", 
        "num_filter": "1024", 
        "num_group": "1", 
        "pad": "(0,0)", 
        "stride": "(1,1)", 
        "workspace": "512"
      }, 
      "name": "stage3_unit32_conv3", 
      "inputs": [[1134, 0], [1135, 0]], 
      "backward_source_id": -1, 
      "attr": {"force_mirroring": "True"}
    }, 
    {
      "op": "_Plus", 
      "param": {}, 
      "name": "_plus58", 
      "inputs": [[1136, 0], [1118, 0]], 
      "backward_source_id": -1, 
      "attr": {
        "force_mirroring": "True", 
        "mirror_stage": "True"
      }
    }, 
    {
      "op": "null", 
      "param": {}, 
      "name": "stage3_unit33_bn1_gamma", 
      "inputs": [], 
      "backward_source_id": -1
    }, 
    {
      "op": "null", 
      "param": {}, 
      "name": "stage3_unit33_bn1_beta", 
      "inputs": [], 
      "backward_source_id": -1
    }, 
    {
      "op": "BatchNorm", 
      "param": {
        "eps": "2e-05", 
        "fix_gamma": "False", 
        "momentum": "0.9", 
        "use_global_stats": "False"
      }, 
      "name": "stage3_unit33_bn1", 
      "inputs": [[1137, 0], [1138, 0], [1139, 0]], 
      "backward_source_id": -1, 
      "attr": {"force_mirroring": "True"}
    }, 
    {
      "op": "Activation", 
      "param": {"act_type": "relu"}, 
      "name": "stage3_unit33_relu1", 
      "inputs": [[1140, 0]], 
      "backward_source_id": -1, 
      "attr": {"force_mirroring": "True"}
    }, 
    {
      "op": "null", 
      "param": {}, 
      "name": "stage3_unit33_conv1_weight", 
      "inputs": [], 
      "backward_source_id": -1
    }, 
    {
      "op": "Convolution", 
      "param": {
        "cudnn_tune": "limited_workspace", 
        "dilate": "(1,1)", 
        "kernel": "(1,1)", 
        "no_bias": "True", 
        "num_filter": "256", 
        "num_group": "1", 
        "pad": "(0,0)", 
        "stride": "(1,1)", 
        "workspace": "512"
      }, 
      "name": "stage3_unit33_conv1", 
      "inputs": [[1141, 0], [1142, 0]], 
      "backward_source_id": -1, 
      "attr": {"force_mirroring": "True"}
    }, 
    {
      "op": "null", 
      "param": {}, 
      "name": "stage3_unit33_bn2_gamma", 
      "inputs": [], 
      "backward_source_id": -1
    }, 
    {
      "op": "null", 
      "param": {}, 
      "name": "stage3_unit33_bn2_beta", 
      "inputs": [], 
      "backward_source_id": -1
    }, 
    {
      "op": "BatchNorm", 
      "param": {
        "eps": "2e-05", 
        "fix_gamma": "False", 
        "momentum": "0.9", 
        "use_global_stats": "False"
      }, 
      "name": "stage3_unit33_bn2", 
      "inputs": [[1143, 0], [1144, 0], [1145, 0]], 
      "backward_source_id": -1, 
      "attr": {"force_mirroring": "True"}
    }, 
    {
      "op": "Activation", 
      "param": {"act_type": "relu"}, 
      "name": "stage3_unit33_relu2", 
      "inputs": [[1146, 0]], 
      "backward_source_id": -1, 
      "attr": {"force_mirroring": "True"}
    }, 
    {
      "op": "null", 
      "param": {}, 
      "name": "stage3_unit33_conv2_weight", 
      "inputs": [], 
      "backward_source_id": -1
    }, 
    {
      "op": "Convolution", 
      "param": {
        "cudnn_tune": "limited_workspace", 
        "dilate": "(1,1)", 
        "kernel": "(3,3)", 
        "no_bias": "True", 
        "num_filter": "256", 
        "num_group": "1", 
        "pad": "(1,1)", 
        "stride": "(1,1)", 
        "workspace": "512"
      }, 
      "name": "stage3_unit33_conv2", 
      "inputs": [[1147, 0], [1148, 0]], 
      "backward_source_id": -1, 
      "attr": {"force_mirroring": "True"}
    }, 
    {
      "op": "null", 
      "param": {}, 
      "name": "stage3_unit33_bn3_gamma", 
      "inputs": [], 
      "backward_source_id": -1
    }, 
    {
      "op": "null", 
      "param": {}, 
      "name": "stage3_unit33_bn3_beta", 
      "inputs": [], 
      "backward_source_id": -1
    }, 
    {
      "op": "BatchNorm", 
      "param": {
        "eps": "2e-05", 
        "fix_gamma": "False", 
        "momentum": "0.9", 
        "use_global_stats": "False"
      }, 
      "name": "stage3_unit33_bn3", 
      "inputs": [[1149, 0], [1150, 0], [1151, 0]], 
      "backward_source_id": -1, 
      "attr": {"force_mirroring": "True"}
    }, 
    {
      "op": "Activation", 
      "param": {"act_type": "relu"}, 
      "name": "stage3_unit33_relu3", 
      "inputs": [[1152, 0]], 
      "backward_source_id": -1, 
      "attr": {"force_mirroring": "True"}
    }, 
    {
      "op": "null", 
      "param": {}, 
      "name": "stage3_unit33_conv3_weight", 
      "inputs": [], 
      "backward_source_id": -1
    }, 
    {
      "op": "Convolution", 
      "param": {
        "cudnn_tune": "limited_workspace", 
        "dilate": "(1,1)", 
        "kernel": "(1,1)", 
        "no_bias": "True", 
        "num_filter": "1024", 
        "num_group": "1", 
        "pad": "(0,0)", 
        "stride": "(1,1)", 
        "workspace": "512"
      }, 
      "name": "stage3_unit33_conv3", 
      "inputs": [[1153, 0], [1154, 0]], 
      "backward_source_id": -1, 
      "attr": {"force_mirroring": "True"}
    }, 
    {
      "op": "_Plus", 
      "param": {}, 
      "name": "_plus59", 
      "inputs": [[1155, 0], [1137, 0]], 
      "backward_source_id": -1, 
      "attr": {
        "force_mirroring": "True", 
        "mirror_stage": "True"
      }
    }, 
    {
      "op": "null", 
      "param": {}, 
      "name": "stage3_unit34_bn1_gamma", 
      "inputs": [], 
      "backward_source_id": -1
    }, 
    {
      "op": "null", 
      "param": {}, 
      "name": "stage3_unit34_bn1_beta", 
      "inputs": [], 
      "backward_source_id": -1
    }, 
    {
      "op": "BatchNorm", 
      "param": {
        "eps": "2e-05", 
        "fix_gamma": "False", 
        "momentum": "0.9", 
        "use_global_stats": "False"
      }, 
      "name": "stage3_unit34_bn1", 
      "inputs": [[1156, 0], [1157, 0], [1158, 0]], 
      "backward_source_id": -1, 
      "attr": {"force_mirroring": "True"}
    }, 
    {
      "op": "Activation", 
      "param": {"act_type": "relu"}, 
      "name": "stage3_unit34_relu1", 
      "inputs": [[1159, 0]], 
      "backward_source_id": -1, 
      "attr": {"force_mirroring": "True"}
    }, 
    {
      "op": "null", 
      "param": {}, 
      "name": "stage3_unit34_conv1_weight", 
      "inputs": [], 
      "backward_source_id": -1
    }, 
    {
      "op": "Convolution", 
      "param": {
        "cudnn_tune": "limited_workspace", 
        "dilate": "(1,1)", 
        "kernel": "(1,1)", 
        "no_bias": "True", 
        "num_filter": "256", 
        "num_group": "1", 
        "pad": "(0,0)", 
        "stride": "(1,1)", 
        "workspace": "512"
      }, 
      "name": "stage3_unit34_conv1", 
      "inputs": [[1160, 0], [1161, 0]], 
      "backward_source_id": -1, 
      "attr": {"force_mirroring": "True"}
    }, 
    {
      "op": "null", 
      "param": {}, 
      "name": "stage3_unit34_bn2_gamma", 
      "inputs": [], 
      "backward_source_id": -1
    }, 
    {
      "op": "null", 
      "param": {}, 
      "name": "stage3_unit34_bn2_beta", 
      "inputs": [], 
      "backward_source_id": -1
    }, 
    {
      "op": "BatchNorm", 
      "param": {
        "eps": "2e-05", 
        "fix_gamma": "False", 
        "momentum": "0.9", 
        "use_global_stats": "False"
      }, 
      "name": "stage3_unit34_bn2", 
      "inputs": [[1162, 0], [1163, 0], [1164, 0]], 
      "backward_source_id": -1, 
      "attr": {"force_mirroring": "True"}
    }, 
    {
      "op": "Activation", 
      "param": {"act_type": "relu"}, 
      "name": "stage3_unit34_relu2", 
      "inputs": [[1165, 0]], 
      "backward_source_id": -1, 
      "attr": {"force_mirroring": "True"}
    }, 
    {
      "op": "null", 
      "param": {}, 
      "name": "stage3_unit34_conv2_weight", 
      "inputs": [], 
      "backward_source_id": -1
    }, 
    {
      "op": "Convolution", 
      "param": {
        "cudnn_tune": "limited_workspace", 
        "dilate": "(1,1)", 
        "kernel": "(3,3)", 
        "no_bias": "True", 
        "num_filter": "256", 
        "num_group": "1", 
        "pad": "(1,1)", 
        "stride": "(1,1)", 
        "workspace": "512"
      }, 
      "name": "stage3_unit34_conv2", 
      "inputs": [[1166, 0], [1167, 0]], 
      "backward_source_id": -1, 
      "attr": {"force_mirroring": "True"}
    }, 
    {
      "op": "null", 
      "param": {}, 
      "name": "stage3_unit34_bn3_gamma", 
      "inputs": [], 
      "backward_source_id": -1
    }, 
    {
      "op": "null", 
      "param": {}, 
      "name": "stage3_unit34_bn3_beta", 
      "inputs": [], 
      "backward_source_id": -1
    }, 
    {
      "op": "BatchNorm", 
      "param": {
        "eps": "2e-05", 
        "fix_gamma": "False", 
        "momentum": "0.9", 
        "use_global_stats": "False"
      }, 
      "name": "stage3_unit34_bn3", 
      "inputs": [[1168, 0], [1169, 0], [1170, 0]], 
      "backward_source_id": -1, 
      "attr": {"force_mirroring": "True"}
    }, 
    {
      "op": "Activation", 
      "param": {"act_type": "relu"}, 
      "name": "stage3_unit34_relu3", 
      "inputs": [[1171, 0]], 
      "backward_source_id": -1, 
      "attr": {"force_mirroring": "True"}
    }, 
    {
      "op": "null", 
      "param": {}, 
      "name": "stage3_unit34_conv3_weight", 
      "inputs": [], 
      "backward_source_id": -1
    }, 
    {
      "op": "Convolution", 
      "param": {
        "cudnn_tune": "limited_workspace", 
        "dilate": "(1,1)", 
        "kernel": "(1,1)", 
        "no_bias": "True", 
        "num_filter": "1024", 
        "num_group": "1", 
        "pad": "(0,0)", 
        "stride": "(1,1)", 
        "workspace": "512"
      }, 
      "name": "stage3_unit34_conv3", 
      "inputs": [[1172, 0], [1173, 0]], 
      "backward_source_id": -1, 
      "attr": {"force_mirroring": "True"}
    }, 
    {
      "op": "_Plus", 
      "param": {}, 
      "name": "_plus60", 
      "inputs": [[1174, 0], [1156, 0]], 
      "backward_source_id": -1, 
      "attr": {
        "force_mirroring": "True", 
        "mirror_stage": "True"
      }
    }, 
    {
      "op": "null", 
      "param": {}, 
      "name": "stage3_unit35_bn1_gamma", 
      "inputs": [], 
      "backward_source_id": -1
    }, 
    {
      "op": "null", 
      "param": {}, 
      "name": "stage3_unit35_bn1_beta", 
      "inputs": [], 
      "backward_source_id": -1
    }, 
    {
      "op": "BatchNorm", 
      "param": {
        "eps": "2e-05", 
        "fix_gamma": "False", 
        "momentum": "0.9", 
        "use_global_stats": "False"
      }, 
      "name": "stage3_unit35_bn1", 
      "inputs": [[1175, 0], [1176, 0], [1177, 0]], 
      "backward_source_id": -1, 
      "attr": {"force_mirroring": "True"}
    }, 
    {
      "op": "Activation", 
      "param": {"act_type": "relu"}, 
      "name": "stage3_unit35_relu1", 
      "inputs": [[1178, 0]], 
      "backward_source_id": -1, 
      "attr": {"force_mirroring": "True"}
    }, 
    {
      "op": "null", 
      "param": {}, 
      "name": "stage3_unit35_conv1_weight", 
      "inputs": [], 
      "backward_source_id": -1
    }, 
    {
      "op": "Convolution", 
      "param": {
        "cudnn_tune": "limited_workspace", 
        "dilate": "(1,1)", 
        "kernel": "(1,1)", 
        "no_bias": "True", 
        "num_filter": "256", 
        "num_group": "1", 
        "pad": "(0,0)", 
        "stride": "(1,1)", 
        "workspace": "512"
      }, 
      "name": "stage3_unit35_conv1", 
      "inputs": [[1179, 0], [1180, 0]], 
      "backward_source_id": -1, 
      "attr": {"force_mirroring": "True"}
    }, 
    {
      "op": "null", 
      "param": {}, 
      "name": "stage3_unit35_bn2_gamma", 
      "inputs": [], 
      "backward_source_id": -1
    }, 
    {
      "op": "null", 
      "param": {}, 
      "name": "stage3_unit35_bn2_beta", 
      "inputs": [], 
      "backward_source_id": -1
    }, 
    {
      "op": "BatchNorm", 
      "param": {
        "eps": "2e-05", 
        "fix_gamma": "False", 
        "momentum": "0.9", 
        "use_global_stats": "False"
      }, 
      "name": "stage3_unit35_bn2", 
      "inputs": [[1181, 0], [1182, 0], [1183, 0]], 
      "backward_source_id": -1, 
      "attr": {"force_mirroring": "True"}
    }, 
    {
      "op": "Activation", 
      "param": {"act_type": "relu"}, 
      "name": "stage3_unit35_relu2", 
      "inputs": [[1184, 0]], 
      "backward_source_id": -1, 
      "attr": {"force_mirroring": "True"}
    }, 
    {
      "op": "null", 
      "param": {}, 
      "name": "stage3_unit35_conv2_weight", 
      "inputs": [], 
      "backward_source_id": -1
    }, 
    {
      "op": "Convolution", 
      "param": {
        "cudnn_tune": "limited_workspace", 
        "dilate": "(1,1)", 
        "kernel": "(3,3)", 
        "no_bias": "True", 
        "num_filter": "256", 
        "num_group": "1", 
        "pad": "(1,1)", 
        "stride": "(1,1)", 
        "workspace": "512"
      }, 
      "name": "stage3_unit35_conv2", 
      "inputs": [[1185, 0], [1186, 0]], 
      "backward_source_id": -1, 
      "attr": {"force_mirroring": "True"}
    }, 
    {
      "op": "null", 
      "param": {}, 
      "name": "stage3_unit35_bn3_gamma", 
      "inputs": [], 
      "backward_source_id": -1
    }, 
    {
      "op": "null", 
      "param": {}, 
      "name": "stage3_unit35_bn3_beta", 
      "inputs": [], 
      "backward_source_id": -1
    }, 
    {
      "op": "BatchNorm", 
      "param": {
        "eps": "2e-05", 
        "fix_gamma": "False", 
        "momentum": "0.9", 
        "use_global_stats": "False"
      }, 
      "name": "stage3_unit35_bn3", 
      "inputs": [[1187, 0], [1188, 0], [1189, 0]], 
      "backward_source_id": -1, 
      "attr": {"force_mirroring": "True"}
    }, 
    {
      "op": "Activation", 
      "param": {"act_type": "relu"}, 
      "name": "stage3_unit35_relu3", 
      "inputs": [[1190, 0]], 
      "backward_source_id": -1, 
      "attr": {"force_mirroring": "True"}
    }, 
    {
      "op": "null", 
      "param": {}, 
      "name": "stage3_unit35_conv3_weight", 
      "inputs": [], 
      "backward_source_id": -1
    }, 
    {
      "op": "Convolution", 
      "param": {
        "cudnn_tune": "limited_workspace", 
        "dilate": "(1,1)", 
        "kernel": "(1,1)", 
        "no_bias": "True", 
        "num_filter": "1024", 
        "num_group": "1", 
        "pad": "(0,0)", 
        "stride": "(1,1)", 
        "workspace": "512"
      }, 
      "name": "stage3_unit35_conv3", 
      "inputs": [[1191, 0], [1192, 0]], 
      "backward_source_id": -1, 
      "attr": {"force_mirroring": "True"}
    }, 
    {
      "op": "_Plus", 
      "param": {}, 
      "name": "_plus61", 
      "inputs": [[1193, 0], [1175, 0]], 
      "backward_source_id": -1, 
      "attr": {
        "force_mirroring": "True", 
        "mirror_stage": "True"
      }
    }, 
    {
      "op": "null", 
      "param": {}, 
      "name": "stage3_unit36_bn1_gamma", 
      "inputs": [], 
      "backward_source_id": -1
    }, 
    {
      "op": "null", 
      "param": {}, 
      "name": "stage3_unit36_bn1_beta", 
      "inputs": [], 
      "backward_source_id": -1
    }, 
    {
      "op": "BatchNorm", 
      "param": {
        "eps": "2e-05", 
        "fix_gamma": "False", 
        "momentum": "0.9", 
        "use_global_stats": "False"
      }, 
      "name": "stage3_unit36_bn1", 
      "inputs": [[1194, 0], [1195, 0], [1196, 0]], 
      "backward_source_id": -1, 
      "attr": {"force_mirroring": "True"}
    }, 
    {
      "op": "Activation", 
      "param": {"act_type": "relu"}, 
      "name": "stage3_unit36_relu1", 
      "inputs": [[1197, 0]], 
      "backward_source_id": -1, 
      "attr": {"force_mirroring": "True"}
    }, 
    {
      "op": "null", 
      "param": {}, 
      "name": "stage3_unit36_conv1_weight", 
      "inputs": [], 
      "backward_source_id": -1
    }, 
    {
      "op": "Convolution", 
      "param": {
        "cudnn_tune": "limited_workspace", 
        "dilate": "(1,1)", 
        "kernel": "(1,1)", 
        "no_bias": "True", 
        "num_filter": "256", 
        "num_group": "1", 
        "pad": "(0,0)", 
        "stride": "(1,1)", 
        "workspace": "512"
      }, 
      "name": "stage3_unit36_conv1", 
      "inputs": [[1198, 0], [1199, 0]], 
      "backward_source_id": -1, 
      "attr": {"force_mirroring": "True"}
    }, 
    {
      "op": "null", 
      "param": {}, 
      "name": "stage3_unit36_bn2_gamma", 
      "inputs": [], 
      "backward_source_id": -1
    }, 
    {
      "op": "null", 
      "param": {}, 
      "name": "stage3_unit36_bn2_beta", 
      "inputs": [], 
      "backward_source_id": -1
    }, 
    {
      "op": "BatchNorm", 
      "param": {
        "eps": "2e-05", 
        "fix_gamma": "False", 
        "momentum": "0.9", 
        "use_global_stats": "False"
      }, 
      "name": "stage3_unit36_bn2", 
      "inputs": [[1200, 0], [1201, 0], [1202, 0]], 
      "backward_source_id": -1, 
      "attr": {"force_mirroring": "True"}
    }, 
    {
      "op": "Activation", 
      "param": {"act_type": "relu"}, 
      "name": "stage3_unit36_relu2", 
      "inputs": [[1203, 0]], 
      "backward_source_id": -1, 
      "attr": {"force_mirroring": "True"}
    }, 
    {
      "op": "null", 
      "param": {}, 
      "name": "stage3_unit36_conv2_weight", 
      "inputs": [], 
      "backward_source_id": -1
    }, 
    {
      "op": "Convolution", 
      "param": {
        "cudnn_tune": "limited_workspace", 
        "dilate": "(1,1)", 
        "kernel": "(3,3)", 
        "no_bias": "True", 
        "num_filter": "256", 
        "num_group": "1", 
        "pad": "(1,1)", 
        "stride": "(1,1)", 
        "workspace": "512"
      }, 
      "name": "stage3_unit36_conv2", 
      "inputs": [[1204, 0], [1205, 0]], 
      "backward_source_id": -1, 
      "attr": {"force_mirroring": "True"}
    }, 
    {
      "op": "null", 
      "param": {}, 
      "name": "stage3_unit36_bn3_gamma", 
      "inputs": [], 
      "backward_source_id": -1
    }, 
    {
      "op": "null", 
      "param": {}, 
      "name": "stage3_unit36_bn3_beta", 
      "inputs": [], 
      "backward_source_id": -1
    }, 
    {
      "op": "BatchNorm", 
      "param": {
        "eps": "2e-05", 
        "fix_gamma": "False", 
        "momentum": "0.9", 
        "use_global_stats": "False"
      }, 
      "name": "stage3_unit36_bn3", 
      "inputs": [[1206, 0], [1207, 0], [1208, 0]], 
      "backward_source_id": -1, 
      "attr": {"force_mirroring": "True"}
    }, 
    {
      "op": "Activation", 
      "param": {"act_type": "relu"}, 
      "name": "stage3_unit36_relu3", 
      "inputs": [[1209, 0]], 
      "backward_source_id": -1, 
      "attr": {"force_mirroring": "True"}
    }, 
    {
      "op": "null", 
      "param": {}, 
      "name": "stage3_unit36_conv3_weight", 
      "inputs": [], 
      "backward_source_id": -1
    }, 
    {
      "op": "Convolution", 
      "param": {
        "cudnn_tune": "limited_workspace", 
        "dilate": "(1,1)", 
        "kernel": "(1,1)", 
        "no_bias": "True", 
        "num_filter": "1024", 
        "num_group": "1", 
        "pad": "(0,0)", 
        "stride": "(1,1)", 
        "workspace": "512"
      }, 
      "name": "stage3_unit36_conv3", 
      "inputs": [[1210, 0], [1211, 0]], 
      "backward_source_id": -1, 
      "attr": {"force_mirroring": "True"}
    }, 
    {
      "op": "_Plus", 
      "param": {}, 
      "name": "_plus62", 
      "inputs": [[1212, 0], [1194, 0]], 
      "backward_source_id": -1, 
      "attr": {"force_mirroring": "True"}
    }, 
    {
      "op": "null", 
      "param": {}, 
      "name": "stage4_unit1_bn1_gamma", 
      "inputs": [], 
      "backward_source_id": -1
    }, 
    {
      "op": "null", 
      "param": {}, 
      "name": "stage4_unit1_bn1_beta", 
      "inputs": [], 
      "backward_source_id": -1
    }, 
    {
      "op": "BatchNorm", 
      "param": {
        "eps": "2e-05", 
        "fix_gamma": "False", 
        "momentum": "0.9", 
        "use_global_stats": "False"
      }, 
      "name": "stage4_unit1_bn1", 
      "inputs": [[1213, 0], [1214, 0], [1215, 0]], 
      "backward_source_id": -1, 
      "attr": {"force_mirroring": "True"}
    }, 
    {
      "op": "Activation", 
      "param": {"act_type": "relu"}, 
      "name": "stage4_unit1_relu1", 
      "inputs": [[1216, 0]], 
      "backward_source_id": -1, 
      "attr": {"force_mirroring": "True"}
    }, 
    {
      "op": "null", 
      "param": {}, 
      "name": "stage4_unit1_conv1_weight", 
      "inputs": [], 
      "backward_source_id": -1
    }, 
    {
      "op": "Convolution", 
      "param": {
        "cudnn_tune": "limited_workspace", 
        "dilate": "(1,1)", 
        "kernel": "(1,1)", 
        "no_bias": "True", 
        "num_filter": "512", 
        "num_group": "1", 
        "pad": "(0,0)", 
        "stride": "(1,1)", 
        "workspace": "512"
      }, 
      "name": "stage4_unit1_conv1", 
      "inputs": [[1217, 0], [1218, 0]], 
      "backward_source_id": -1, 
      "attr": {"force_mirroring": "True"}
    }, 
    {
      "op": "null", 
      "param": {}, 
      "name": "stage4_unit1_bn2_gamma", 
      "inputs": [], 
      "backward_source_id": -1
    }, 
    {
      "op": "null", 
      "param": {}, 
      "name": "stage4_unit1_bn2_beta", 
      "inputs": [], 
      "backward_source_id": -1
    }, 
    {
      "op": "BatchNorm", 
      "param": {
        "eps": "2e-05", 
        "fix_gamma": "False", 
        "momentum": "0.9", 
        "use_global_stats": "False"
      }, 
      "name": "stage4_unit1_bn2", 
      "inputs": [[1219, 0], [1220, 0], [1221, 0]], 
      "backward_source_id": -1, 
      "attr": {"force_mirroring": "True"}
    }, 
    {
      "op": "Activation", 
      "param": {"act_type": "relu"}, 
      "name": "stage4_unit1_relu2", 
      "inputs": [[1222, 0]], 
      "backward_source_id": -1, 
      "attr": {"force_mirroring": "True"}
    }, 
    {
      "op": "null", 
      "param": {}, 
      "name": "stage4_unit1_conv2_weight", 
      "inputs": [], 
      "backward_source_id": -1
    }, 
    {
      "op": "Convolution", 
      "param": {
        "cudnn_tune": "limited_workspace", 
        "dilate": "(1,1)", 
        "kernel": "(3,3)", 
        "no_bias": "True", 
        "num_filter": "512", 
        "num_group": "1", 
        "pad": "(1,1)", 
        "stride": "(2,2)", 
        "workspace": "512"
      }, 
      "name": "stage4_unit1_conv2", 
      "inputs": [[1223, 0], [1224, 0]], 
      "backward_source_id": -1, 
      "attr": {"force_mirroring": "True"}
    }, 
    {
      "op": "null", 
      "param": {}, 
      "name": "stage4_unit1_bn3_gamma", 
      "inputs": [], 
      "backward_source_id": -1
    }, 
    {
      "op": "null", 
      "param": {}, 
      "name": "stage4_unit1_bn3_beta", 
      "inputs": [], 
      "backward_source_id": -1
    }, 
    {
      "op": "BatchNorm", 
      "param": {
        "eps": "2e-05", 
        "fix_gamma": "False", 
        "momentum": "0.9", 
        "use_global_stats": "False"
      }, 
      "name": "stage4_unit1_bn3", 
      "inputs": [[1225, 0], [1226, 0], [1227, 0]], 
      "backward_source_id": -1, 
      "attr": {"force_mirroring": "True"}
    }, 
    {
      "op": "Activation", 
      "param": {"act_type": "relu"}, 
      "name": "stage4_unit1_relu3", 
      "inputs": [[1228, 0]], 
      "backward_source_id": -1, 
      "attr": {"force_mirroring": "True"}
    }, 
    {
      "op": "null", 
      "param": {}, 
      "name": "stage4_unit1_conv3_weight", 
      "inputs": [], 
      "backward_source_id": -1
    }, 
    {
      "op": "Convolution", 
      "param": {
        "cudnn_tune": "limited_workspace", 
        "dilate": "(1,1)", 
        "kernel": "(1,1)", 
        "no_bias": "True", 
        "num_filter": "2048", 
        "num_group": "1", 
        "pad": "(0,0)", 
        "stride": "(1,1)", 
        "workspace": "512"
      }, 
      "name": "stage4_unit1_conv3", 
      "inputs": [[1229, 0], [1230, 0]], 
      "backward_source_id": -1, 
      "attr": {"force_mirroring": "True"}
    }, 
    {
      "op": "null", 
      "param": {}, 
      "name": "stage4_unit1_sc_weight", 
      "inputs": [], 
      "backward_source_id": -1
    }, 
    {
      "op": "Convolution", 
      "param": {
        "cudnn_tune": "limited_workspace", 
        "dilate": "(1,1)", 
        "kernel": "(1,1)", 
        "no_bias": "True", 
        "num_filter": "2048", 
        "num_group": "1", 
        "pad": "(0,0)", 
        "stride": "(2,2)", 
        "workspace": "512"
      }, 
      "name": "stage4_unit1_sc", 
      "inputs": [[1217, 0], [1232, 0]], 
      "backward_source_id": -1, 
      "attr": {
        "force_mirroring": "True", 
        "mirror_stage": "True"
      }
    }, 
    {
      "op": "_Plus", 
      "param": {}, 
      "name": "_plus63", 
      "inputs": [[1231, 0], [1233, 0]], 
      "backward_source_id": -1, 
      "attr": {
        "force_mirroring": "True", 
        "mirror_stage": "True"
      }
    }, 
    {
      "op": "null", 
      "param": {}, 
      "name": "stage4_unit2_bn1_gamma", 
      "inputs": [], 
      "backward_source_id": -1
    }, 
    {
      "op": "null", 
      "param": {}, 
      "name": "stage4_unit2_bn1_beta", 
      "inputs": [], 
      "backward_source_id": -1
    }, 
    {
      "op": "BatchNorm", 
      "param": {
        "eps": "2e-05", 
        "fix_gamma": "False", 
        "momentum": "0.9", 
        "use_global_stats": "False"
      }, 
      "name": "stage4_unit2_bn1", 
      "inputs": [[1234, 0], [1235, 0], [1236, 0]], 
      "backward_source_id": -1, 
      "attr": {"force_mirroring": "True"}
    }, 
    {
      "op": "Activation", 
      "param": {"act_type": "relu"}, 
      "name": "stage4_unit2_relu1", 
      "inputs": [[1237, 0]], 
      "backward_source_id": -1, 
      "attr": {"force_mirroring": "True"}
    }, 
    {
      "op": "null", 
      "param": {}, 
      "name": "stage4_unit2_conv1_weight", 
      "inputs": [], 
      "backward_source_id": -1
    }, 
    {
      "op": "Convolution", 
      "param": {
        "cudnn_tune": "limited_workspace", 
        "dilate": "(1,1)", 
        "kernel": "(1,1)", 
        "no_bias": "True", 
        "num_filter": "512", 
        "num_group": "1", 
        "pad": "(0,0)", 
        "stride": "(1,1)", 
        "workspace": "512"
      }, 
      "name": "stage4_unit2_conv1", 
      "inputs": [[1238, 0], [1239, 0]], 
      "backward_source_id": -1, 
      "attr": {"force_mirroring": "True"}
    }, 
    {
      "op": "null", 
      "param": {}, 
      "name": "stage4_unit2_bn2_gamma", 
      "inputs": [], 
      "backward_source_id": -1
    }, 
    {
      "op": "null", 
      "param": {}, 
      "name": "stage4_unit2_bn2_beta", 
      "inputs": [], 
      "backward_source_id": -1
    }, 
    {
      "op": "BatchNorm", 
      "param": {
        "eps": "2e-05", 
        "fix_gamma": "False", 
        "momentum": "0.9", 
        "use_global_stats": "False"
      }, 
      "name": "stage4_unit2_bn2", 
      "inputs": [[1240, 0], [1241, 0], [1242, 0]], 
      "backward_source_id": -1, 
      "attr": {"force_mirroring": "True"}
    }, 
    {
      "op": "Activation", 
      "param": {"act_type": "relu"}, 
      "name": "stage4_unit2_relu2", 
      "inputs": [[1243, 0]], 
      "backward_source_id": -1, 
      "attr": {"force_mirroring": "True"}
    }, 
    {
      "op": "null", 
      "param": {}, 
      "name": "stage4_unit2_conv2_weight", 
      "inputs": [], 
      "backward_source_id": -1
    }, 
    {
      "op": "Convolution", 
      "param": {
        "cudnn_tune": "limited_workspace", 
        "dilate": "(1,1)", 
        "kernel": "(3,3)", 
        "no_bias": "True", 
        "num_filter": "512", 
        "num_group": "1", 
        "pad": "(1,1)", 
        "stride": "(1,1)", 
        "workspace": "512"
      }, 
      "name": "stage4_unit2_conv2", 
      "inputs": [[1244, 0], [1245, 0]], 
      "backward_source_id": -1, 
      "attr": {"force_mirroring": "True"}
    }, 
    {
      "op": "null", 
      "param": {}, 
      "name": "stage4_unit2_bn3_gamma", 
      "inputs": [], 
      "backward_source_id": -1
    }, 
    {
      "op": "null", 
      "param": {}, 
      "name": "stage4_unit2_bn3_beta", 
      "inputs": [], 
      "backward_source_id": -1
    }, 
    {
      "op": "BatchNorm", 
      "param": {
        "eps": "2e-05", 
        "fix_gamma": "False", 
        "momentum": "0.9", 
        "use_global_stats": "False"
      }, 
      "name": "stage4_unit2_bn3", 
      "inputs": [[1246, 0], [1247, 0], [1248, 0]], 
      "backward_source_id": -1, 
      "attr": {"force_mirroring": "True"}
    }, 
    {
      "op": "Activation", 
      "param": {"act_type": "relu"}, 
      "name": "stage4_unit2_relu3", 
      "inputs": [[1249, 0]], 
      "backward_source_id": -1, 
      "attr": {"force_mirroring": "True"}
    }, 
    {
      "op": "null", 
      "param": {}, 
      "name": "stage4_unit2_conv3_weight", 
      "inputs": [], 
      "backward_source_id": -1
    }, 
    {
      "op": "Convolution", 
      "param": {
        "cudnn_tune": "limited_workspace", 
        "dilate": "(1,1)", 
        "kernel": "(1,1)", 
        "no_bias": "True", 
        "num_filter": "2048", 
        "num_group": "1", 
        "pad": "(0,0)", 
        "stride": "(1,1)", 
        "workspace": "512"
      }, 
      "name": "stage4_unit2_conv3", 
      "inputs": [[1250, 0], [1251, 0]], 
      "backward_source_id": -1, 
      "attr": {"force_mirroring": "True"}
    }, 
    {
      "op": "_Plus", 
      "param": {}, 
      "name": "_plus64", 
      "inputs": [[1252, 0], [1234, 0]], 
      "backward_source_id": -1, 
      "attr": {
        "force_mirroring": "True", 
        "mirror_stage": "True"
      }
    }, 
    {
      "op": "null", 
      "param": {}, 
      "name": "stage4_unit3_bn1_gamma", 
      "inputs": [], 
      "backward_source_id": -1
    }, 
    {
      "op": "null", 
      "param": {}, 
      "name": "stage4_unit3_bn1_beta", 
      "inputs": [], 
      "backward_source_id": -1
    }, 
    {
      "op": "BatchNorm", 
      "param": {
        "eps": "2e-05", 
        "fix_gamma": "False", 
        "momentum": "0.9", 
        "use_global_stats": "False"
      }, 
      "name": "stage4_unit3_bn1", 
      "inputs": [[1253, 0], [1254, 0], [1255, 0]], 
      "backward_source_id": -1, 
      "attr": {"force_mirroring": "True"}
    }, 
    {
      "op": "Activation", 
      "param": {"act_type": "relu"}, 
      "name": "stage4_unit3_relu1", 
      "inputs": [[1256, 0]], 
      "backward_source_id": -1, 
      "attr": {"force_mirroring": "True"}
    }, 
    {
      "op": "null", 
      "param": {}, 
      "name": "stage4_unit3_conv1_weight", 
      "inputs": [], 
      "backward_source_id": -1
    }, 
    {
      "op": "Convolution", 
      "param": {
        "cudnn_tune": "limited_workspace", 
        "dilate": "(1,1)", 
        "kernel": "(1,1)", 
        "no_bias": "True", 
        "num_filter": "512", 
        "num_group": "1", 
        "pad": "(0,0)", 
        "stride": "(1,1)", 
        "workspace": "512"
      }, 
      "name": "stage4_unit3_conv1", 
      "inputs": [[1257, 0], [1258, 0]], 
      "backward_source_id": -1, 
      "attr": {"force_mirroring": "True"}
    }, 
    {
      "op": "null", 
      "param": {}, 
      "name": "stage4_unit3_bn2_gamma", 
      "inputs": [], 
      "backward_source_id": -1
    }, 
    {
      "op": "null", 
      "param": {}, 
      "name": "stage4_unit3_bn2_beta", 
      "inputs": [], 
      "backward_source_id": -1
    }, 
    {
      "op": "BatchNorm", 
      "param": {
        "eps": "2e-05", 
        "fix_gamma": "False", 
        "momentum": "0.9", 
        "use_global_stats": "False"
      }, 
      "name": "stage4_unit3_bn2", 
      "inputs": [[1259, 0], [1260, 0], [1261, 0]], 
      "backward_source_id": -1, 
      "attr": {"force_mirroring": "True"}
    }, 
    {
      "op": "Activation", 
      "param": {"act_type": "relu"}, 
      "name": "stage4_unit3_relu2", 
      "inputs": [[1262, 0]], 
      "backward_source_id": -1, 
      "attr": {"force_mirroring": "True"}
    }, 
    {
      "op": "null", 
      "param": {}, 
      "name": "stage4_unit3_conv2_weight", 
      "inputs": [], 
      "backward_source_id": -1
    }, 
    {
      "op": "Convolution", 
      "param": {
        "cudnn_tune": "limited_workspace", 
        "dilate": "(1,1)", 
        "kernel": "(3,3)", 
        "no_bias": "True", 
        "num_filter": "512", 
        "num_group": "1", 
        "pad": "(1,1)", 
        "stride": "(1,1)", 
        "workspace": "512"
      }, 
      "name": "stage4_unit3_conv2", 
      "inputs": [[1263, 0], [1264, 0]], 
      "backward_source_id": -1, 
      "attr": {"force_mirroring": "True"}
    }, 
    {
      "op": "null", 
      "param": {}, 
      "name": "stage4_unit3_bn3_gamma", 
      "inputs": [], 
      "backward_source_id": -1
    }, 
    {
      "op": "null", 
      "param": {}, 
      "name": "stage4_unit3_bn3_beta", 
      "inputs": [], 
      "backward_source_id": -1
    }, 
    {
      "op": "BatchNorm", 
      "param": {
        "eps": "2e-05", 
        "fix_gamma": "False", 
        "momentum": "0.9", 
        "use_global_stats": "False"
      }, 
      "name": "stage4_unit3_bn3", 
      "inputs": [[1265, 0], [1266, 0], [1267, 0]], 
      "backward_source_id": -1, 
      "attr": {"force_mirroring": "True"}
    }, 
    {
      "op": "Activation", 
      "param": {"act_type": "relu"}, 
      "name": "stage4_unit3_relu3", 
      "inputs": [[1268, 0]], 
      "backward_source_id": -1, 
      "attr": {"force_mirroring": "True"}
    }, 
    {
      "op": "null", 
      "param": {}, 
      "name": "stage4_unit3_conv3_weight", 
      "inputs": [], 
      "backward_source_id": -1
    }, 
    {
      "op": "Convolution", 
      "param": {
        "cudnn_tune": "limited_workspace", 
        "dilate": "(1,1)", 
        "kernel": "(1,1)", 
        "no_bias": "True", 
        "num_filter": "2048", 
        "num_group": "1", 
        "pad": "(0,0)", 
        "stride": "(1,1)", 
        "workspace": "512"
      }, 
      "name": "stage4_unit3_conv3", 
      "inputs": [[1269, 0], [1270, 0]], 
      "backward_source_id": -1, 
      "attr": {"force_mirroring": "True"}
    }, 
    {
      "op": "_Plus", 
      "param": {}, 
      "name": "_plus65", 
      "inputs": [[1271, 0], [1253, 0]], 
      "backward_source_id": -1, 
      "attr": {"force_mirroring": "True"}
    }, 
    {
      "op": "null", 
      "param": {}, 
      "name": "bn1_gamma", 
      "inputs": [], 
      "backward_source_id": -1
    }, 
    {
      "op": "null", 
      "param": {}, 
      "name": "bn1_beta", 
      "inputs": [], 
      "backward_source_id": -1
    }, 
    {
      "op": "BatchNorm", 
      "param": {
        "eps": "2e-05", 
        "fix_gamma": "False", 
        "momentum": "0.9", 
        "use_global_stats": "False"
      }, 
      "name": "bn1", 
      "inputs": [[1272, 0], [1273, 0], [1274, 0]], 
      "backward_source_id": -1, 
      "attr": {"force_mirroring": "True"}
    }, 
    {
      "op": "Activation", 
      "param": {"act_type": "relu"}, 
      "name": "relu1", 
      "inputs": [[1275, 0]], 
      "backward_source_id": -1, 
      "attr": {"force_mirroring": "True"}
    }, 
    {
      "op": "Pooling", 
      "param": {
        "global_pool": "True", 
        "kernel": "(7,7)", 
        "pad": "(0,0)", 
        "pool_type": "avg", 
        "stride": "(1,1)"
      }, 
      "name": "pool1", 
      "inputs": [[1276, 0]], 
      "backward_source_id": -1, 
      "attr": {"force_mirroring": "True"}
    }, 
    {
      "op": "Flatten", 
      "param": {}, 
      "name": "flatten0", 
      "inputs": [[1277, 0]], 
      "backward_source_id": -1, 
      "attr": {"force_mirroring": "True"}
    }, 
    {
      "op": "null", 
      "param": {}, 
      "name": "fc1_weight", 
      "inputs": [], 
      "backward_source_id": -1
    }, 
    {
      "op": "null", 
      "param": {}, 
      "name": "fc1_bias", 
      "inputs": [], 
      "backward_source_id": -1
    }, 
    {
      "op": "FullyConnected", 
      "param": {
        "no_bias": "False", 
        "num_hidden": "1000"
      }, 
      "name": "fc1", 
      "inputs": [[1278, 0], [1279, 0], [1280, 0]], 
      "backward_source_id": -1, 
      "attr": {"force_mirroring": "True"}
    }, 
    {
      "op": "null", 
      "param": {}, 
      "name": "softmax_label", 
      "inputs": [], 
      "backward_source_id": -1, 
      "attr": {"force_mirroring": "True"}
    }, 
    {
      "op": "SoftmaxOutput", 
      "param": {
        "grad_scale": "1", 
        "ignore_label": "-1", 
        "multi_output": "False", 
        "normalization": "null", 
        "use_ignore": "False"
      }, 
      "name": "softmax", 
      "inputs": [[1281, 0], [1282, 0]], 
      "backward_source_id": -1, 
      "attr": {"force_mirroring": "True"}
    }
  ], 
  "arg_nodes": [
    0, 
    1, 
    2, 
    4, 
    6, 
    7, 
    11, 
    12, 
    15, 
    17, 
    18, 
    21, 
    23, 
    24, 
    27, 
    29, 
    32, 
    33, 
    36, 
    38, 
    39, 
    42, 
    44, 
    45, 
    48, 
    51, 
    52, 
    55, 
    57, 
    58, 
    61, 
    63, 
    64, 
    67, 
    70, 
    71, 
    74, 
    76, 
    77, 
    80, 
    82, 
    83, 
    86, 
    88, 
    91, 
    92, 
    95, 
    97, 
    98, 
    101, 
    103, 
    104, 
    107, 
    110, 
    111, 
    114, 
    116, 
    117, 
    120, 
    122, 
    123, 
    126, 
    129, 
    130, 
    133, 
    135, 
    136, 
    139, 
    141, 
    142, 
    145, 
    148, 
    149, 
    152, 
    154, 
    155, 
    158, 
    160, 
    161, 
    164, 
    167, 
    168, 
    171, 
    173, 
    174, 
    177, 
    179, 
    180, 
    183, 
    186, 
    187, 
    190, 
    192, 
    193, 
    196, 
    198, 
    199, 
    202, 
    205, 
    206, 
    209, 
    211, 
    212, 
    215, 
    217, 
    218, 
    221, 
    224, 
    225, 
    228, 
    230, 
    231, 
    234, 
    236, 
    237, 
    240, 
    243, 
    244, 
    247, 
    249, 
    250, 
    253, 
    255, 
    256, 
    259, 
    262, 
    263, 
    266, 
    268, 
    269, 
    272, 
    274, 
    275, 
    278, 
    281, 
    282, 
    285, 
    287, 
    288, 
    291, 
    293, 
    294, 
    297, 
    300, 
    301, 
    304, 
    306, 
    307, 
    310, 
    312, 
    313, 
    316, 
    319, 
    320, 
    323, 
    325, 
    326, 
    329, 
    331, 
    332, 
    335, 
    338, 
    339, 
    342, 
    344, 
    345, 
    348, 
    350, 
    351, 
    354, 
    357, 
    358, 
    361, 
    363, 
    364, 
    367, 
    369, 
    370, 
    373, 
    376, 
    377, 
    380, 
    382, 
    383, 
    386, 
    388, 
    389, 
    392, 
    395, 
    396, 
    399, 
    401, 
    402, 
    405, 
    407, 
    408, 
    411, 
    414, 
    415, 
    418, 
    420, 
    421, 
    424, 
    426, 
    427, 
    430, 
    433, 
    434, 
    437, 
    439, 
    440, 
    443, 
    445, 
    446, 
    449, 
    452, 
    453, 
    456, 
    458, 
    459, 
    462, 
    464, 
    465, 
    468, 
    471, 
    472, 
    475, 
    477, 
    478, 
    481, 
    483, 
    484, 
    487, 
    490, 
    491, 
    494, 
    496, 
    497, 
    500, 
    502, 
    503, 
    506, 
    509, 
    510, 
    513, 
    515, 
    516, 
    519, 
    521, 
    522, 
    525, 
    528, 
    529, 
    532, 
    534, 
    535, 
    538, 
    540, 
    541, 
    544, 
    546, 
    549, 
    550, 
    553, 
    555, 
    556, 
    559, 
    561, 
    562, 
    565, 
    568, 
    569, 
    572, 
    574, 
    575, 
    578, 
    580, 
    581, 
    584, 
    587, 
    588, 
    591, 
    593, 
    594, 
    597, 
    599, 
    600, 
    603, 
    606, 
    607, 
    610, 
    612, 
    613, 
    616, 
    618, 
    619, 
    622, 
    625, 
    626, 
    629, 
    631, 
    632, 
    635, 
    637, 
    638, 
    641, 
    644, 
    645, 
    648, 
    650, 
    651, 
    654, 
    656, 
    657, 
    660, 
    663, 
    664, 
    667, 
    669, 
    670, 
    673, 
    675, 
    676, 
    679, 
    682, 
    683, 
    686, 
    688, 
    689, 
    692, 
    694, 
    695, 
    698, 
    701, 
    702, 
    705, 
    707, 
    708, 
    711, 
    713, 
    714, 
    717, 
    720, 
    721, 
    724, 
    726, 
    727, 
    730, 
    732, 
    733, 
    736, 
    739, 
    740, 
    743, 
    745, 
    746, 
    749, 
    751, 
    752, 
    755, 
    758, 
    759, 
    762, 
    764, 
    765, 
    768, 
    770, 
    771, 
    774, 
    777, 
    778, 
    781, 
    783, 
    784, 
    787, 
    789, 
    790, 
    793, 
    796, 
    797, 
    800, 
    802, 
    803, 
    806, 
    808, 
    809, 
    812, 
    815, 
    816, 
    819, 
    821, 
    822, 
    825, 
    827, 
    828, 
    831, 
    834, 
    835, 
    838, 
    840, 
    841, 
    844, 
    846, 
    847, 
    850, 
    853, 
    854, 
    857, 
    859, 
    860, 
    863, 
    865, 
    866, 
    869, 
    872, 
    873, 
    876, 
    878, 
    879, 
    882, 
    884, 
    885, 
    888, 
    891, 
    892, 
    895, 
    897, 
    898, 
    901, 
    903, 
    904, 
    907, 
    910, 
    911, 
    914, 
    916, 
    917, 
    920, 
    922, 
    923, 
    926, 
    929, 
    930, 
    933, 
    935, 
    936, 
    939, 
    941, 
    942, 
    945, 
    948, 
    949, 
    952, 
    954, 
    955, 
    958, 
    960, 
    961, 
    964, 
    967, 
    968, 
    971, 
    973, 
    974, 
    977, 
    979, 
    980, 
    983, 
    986, 
    987, 
    990, 
    992, 
    993, 
    996, 
    998, 
    999, 
    1002, 
    1005, 
    1006, 
    1009, 
    1011, 
    1012, 
    1015, 
    1017, 
    1018, 
    1021, 
    1024, 
    1025, 
    1028, 
    1030, 
    1031, 
    1034, 
    1036, 
    1037, 
    1040, 
    1043, 
    1044, 
    1047, 
    1049, 
    1050, 
    1053, 
    1055, 
    1056, 
    1059, 
    1062, 
    1063, 
    1066, 
    1068, 
    1069, 
    1072, 
    1074, 
    1075, 
    1078, 
    1081, 
    1082, 
    1085, 
    1087, 
    1088, 
    1091, 
    1093, 
    1094, 
    1097, 
    1100, 
    1101, 
    1104, 
    1106, 
    1107, 
    1110, 
    1112, 
    1113, 
    1116, 
    1119, 
    1120, 
    1123, 
    1125, 
    1126, 
    1129, 
    1131, 
    1132, 
    1135, 
    1138, 
    1139, 
    1142, 
    1144, 
    1145, 
    1148, 
    1150, 
    1151, 
    1154, 
    1157, 
    1158, 
    1161, 
    1163, 
    1164, 
    1167, 
    1169, 
    1170, 
    1173, 
    1176, 
    1177, 
    1180, 
    1182, 
    1183, 
    1186, 
    1188, 
    1189, 
    1192, 
    1195, 
    1196, 
    1199, 
    1201, 
    1202, 
    1205, 
    1207, 
    1208, 
    1211, 
    1214, 
    1215, 
    1218, 
    1220, 
    1221, 
    1224, 
    1226, 
    1227, 
    1230, 
    1232, 
    1235, 
    1236, 
    1239, 
    1241, 
    1242, 
    1245, 
    1247, 
    1248, 
    1251, 
    1254, 
    1255, 
    1258, 
    1260, 
    1261, 
    1264, 
    1266, 
    1267, 
    1270, 
    1273, 
    1274, 
    1279, 
    1280, 
    1282
  ], 
  "heads": [[1283, 0]]
}